assets/models/tomato_disease_model_quant_v3.tflite (tflite, 385248 bytes, 28 tensors)

arith.constant f4 [32]
000000 04 99 84 3c 12 da 17 b7 f8 43 6b 3a 6f d3 89 3b
       0.016186245 -9.051075e-06 0.00089746667 0.004206113
000010 21 d4 0b 3c b4 51 a4 bb 45 e4 0e ba ff 1d a6 bb
       0.008534462 -0.0050146226 -0.0005450885 -0.005069494
000020 c5 28 25 bb b3 43 9b 3c f2 71 8b 3c ae 14 15 3b
       -0.0025201302 0.01895318 0.017022107 0.0022747922
000030 db d6 43 bc 7b 72 cf 3a be 05 9d 39 46 eb ad 3c
       -0.011953081 0.0015826965 0.00029949652 0.021230351
000040 c1 35 02 bc b1 5d d9 3c e7 9b 81 bc 7f 31 b8 bb
       -0.007947386 0.026533933 -0.01582141 -0.005621135
000050 55 dd 9b ba 76 83 0b 3c 8a 7c 2b 3c 0f 99 05 3c
       -0.0011891524 0.008515229 0.010466704 0.008154168
000060 a0 98 f7 3a ee 3c 47 3c 9f 8e 84 3b b7 9f 7d 3c
       0.001889009 0.012160523 0.004045322 0.0154799735
000070 83 82 e3 3b 4a d2 c0 b9 c2 75 90 bb 55 ff a5 3b
       0.0069430484 -0.0003677777 -0.004408569 0.0050658383

arith.constant1 f4 [32, 3, 3, 3]
000000 32 cf a5 bd b5 85 88 bd 6c 0b bd 3c 1a 1a 26 3c
       -0.0809616 -0.066661276 0.023076735 0.010138059
000010 a4 40 08 3e 7c 22 e3 3d aa d8 09 3d de 07 65 3d
       0.13305908 0.11090562 0.033653893 0.055915706
000020 77 16 96 bd 10 e7 a6 bd 96 ce 11 3d 27 44 a7 bb
       -0.073285036 -0.081495404 0.035597406 -0.00510456
000030 bd d9 67 bd 49 15 0c 3d 49 56 84 3d c5 fc 52 bd
       -0.056604136 0.034199987 0.0646177 -0.05151059
000040 de 1d dd bd ad 30 d7 3d 84 57 a8 bd ff ed cc bd
       -0.10796712 0.10507331 -0.08219817 -0.10006332
000050 83 d4 ee 3c 6b d6 fc 3d f7 49 a5 bd ef 3a 20 3c
       0.029154068 0.123455845 -0.08070748 0.009779676
000060 60 db 19 be 5e 04 06 3e d2 21 f6 bd af cc 25 bd
       -0.15025091 0.13087603 -0.120181695 -0.040478405
000070 7e 08 9e bc ab 4d fc bd dc 0b 88 3c 04 95 b0 3b
       -0.019291159 -0.123195015 0.016607217 0.005388858
000080 74 08 30 3d 62 46 dd 3d c9 28 a7 bc c5 5a 4a bd
       0.04297681 0.1080444 -0.02040519 -0.04940297
000090 74 32 d1 bd 5f 52 02 3e ec 5b 96 bc 19 39 1b bd
       -0.10214701 0.12726735 -0.018354379 -0.03789625
0000a0 64 a9 ba 3d 4a 27 fa bd 89 a5 84 3d b3 12 f1 bd
       0.0911434 -0.12214525 0.06476886 -0.11771145
0000b0 79 db 91 3d 87 8b e1 3c db cd 5a 3d 42 25 a5 3d
       0.07121939 0.027532352 0.053418975 0.08063747
0000c0 e3 59 03 be a6 f0 34 bd 9e d8 f2 3b 2f a9 bb 3d
       -0.12827258 -0.044174813 0.0074110767 0.091631286
0000d0 b1 9c b6 3d a9 df 17 bd 49 60 46 3c ea a0 b9 bc
       0.08916605 -0.037078533 0.012107917 -0.022659738
0000e0 b9 32 a4 3d 51 30 c0 bd b8 e6 91 3d f8 97 6b bd
       0.08017487 -0.093842156 0.07124084 -0.057517976
0000f0 3b 3c c5 3d 9d 62 f9 3d 0f ff ad bd 58 5e de bd
       0.09630629 0.12177012 -0.08495914 -0.108578384
000100 13 9b 07 bd 8c 78 d1 3d f5 11 03 3e b3 20 58 3d
       -0.033106875 0.102280706 0.12799819 0.05276556
000110 10 ec e0 bd 9f a3 a0 3d 6c 69 67 3d ab c8 2f 3d
       -0.10982525 0.07843708 0.056497023 0.04291598
000120 6c 89 cf bd 4e 94 d3 bc 23 f8 99 3d 5f 85 e5 3d
       -0.10133633 -0.025827553 0.075180314 0.11207079
000130 94 51 cc 3d 66 b8 c3 bd a2 5d 0c 3d 4d a2 a7 bd
       0.09976497 -0.095566556 0.034268983 -0.08185253
000140 e7 e5 d9 3d 87 9c b2 bc dd 00 2f bd c4 15 c3 3d
       0.106395535 -0.021803154 -0.042725433 0.09525636
000150 0b cc 92 bc 4a 1a fd 3c 5c f8 c2 3d 8b ed 12 3e
       -0.01791956 0.030896325 0.09520027 0.14348428
000160 b7 83 82 3d 4c f8 cb bd 70 35 49 bd 68 ae 4f bc
       0.06372779 -0.09959468 -0.049123228 -0.012675859
000170 63 59 e5 3d 97 cf d4 bd d0 b6 e1 3d b0 a3 99 3d
       0.1119869 -0.10391157 0.11021197 0.07501924
000180 20 ea ec bc ce 3a e0 bd 23 1a 96 bc b7 73 13 be
       -0.028920233 -0.10948716 -0.01832301 -0.1439961
000190 1b 12 df bd 46 8a 3c bd 1d fa fe 3d 25 b1 a6 bd
       -0.10892125 -0.046030305 0.12450049 -0.081392564
0001a0 3e 93 d7 bd a8 0b 0a bd 71 57 b7 3d 58 85 a6 bd
       -0.10526131 -0.033702523 0.08952225 -0.08130902
0001b0 ec 82 97 3d 38 6e 8c 3d dd 4a 9d bd a9 e8 21 bc
       0.07398018 0.0685696 -0.07680295 -0.009882131
0001c0 44 f6 8e bd 1f 74 80 3d 0c 30 af bd 24 f2 f9 bc
       -0.06980565 0.06272148 -0.08554086 -0.03051097
0001d0 fb 49 f2 3c 9e 85 61 bd 93 45 a6 bd c8 9b bd bd
       0.029576292 -0.055059068 -0.08118739 -0.092582285
0001e0 0e 2f 8b 3d 7b 24 fc bd 44 a1 ce bd 17 61 9c 3c
       0.06796084 -0.123116456 -0.10089353 0.019089265
0001f0 0e ee 05 3e cf a7 dd bb 24 cd 38 bd 08 bb 3b 3d
       0.13079092 -0.006764389 -0.045117512 0.045832664
000200 ba fa b6 3d 5a 20 03 bd 96 cb be 3d 29 6f 72 bd
       0.08934541 -0.032013275 0.09316175 -0.05918804
000210 d1 a7 77 bb 68 eb 90 3c f2 0e 3c bd 78 a7 5a bc
       -0.0037789235 0.017690375 -0.04591269 -0.013345592
000220 d8 f6 b5 3d 8f 10 a4 3d e9 88 09 3c 51 48 8e bd
       0.08884972 0.08010971 0.008394458 -0.06947387
000230 88 18 b6 bc 4b e4 b9 bd ae 59 60 3d 31 bf 93 3c
       -0.022228494 -0.090767466 0.054773025 0.018035503
000240 d5 65 8b bb 93 d4 1f be 64 f7 cc 3d 83 6b 71 3d
       -0.0042540827 -0.15608434 0.100081235 0.05894042
000250 63 1d d8 3c c2 f7 e6 3d 38 01 7b 3c 3b 58 b2 3d
       0.0263812 0.11277725 0.015320115 0.08708235
000260 6c ee f3 3d 0f 9a 0f be 7a c9 02 be eb d1 83 bd
       0.1191071 -0.14023612 -0.1277217 -0.06436523
000270 07 cd ef 3d 74 0f 1b bd c3 d9 a4 bc 50 79 01 3e
       0.11709028 -0.037856534 -0.020123368 0.12643933
000280 3f a1 5f bd 24 71 d0 3d 5b 45 ad bd 16 c8 85 3c
       -0.054597136 0.1017783 -0.08460494 0.01633076
000290 82 07 68 3b af 00 04 3e a7 7e 09 3e df 18 e3 bd
       0.0035404866 0.12890886 0.1342722 -0.11088728
0002a0 27 90 8a bc 41 c0 79 bc c7 ea 70 bd 26 e3 ee 3d
       -0.01691444 -0.015243591 -0.05881765 0.11664419
0002b0 9d a2 b9 3d 4c be e4 bd 94 e4 a9 3d bd 6a 42 3d
       0.09064219 -0.11169109 0.08295551 0.047465075
0002c0 da 04 d6 bd 87 aa 53 3d 4f 4f 4b bd 48 7c 80 3d
       -0.10450144 0.0516763 -0.04963618 0.06273705
0002d0 91 d0 bf bd 56 1e 0f be 30 08 b0 3d 57 45 1d bc
       -0.09365953 -0.13976416 0.08595312 -0.009599051
0002e0 df 0c 09 be 7a 33 91 bd 3e f1 6b bd 2c 92 c5 bb
       -0.13383816 -0.070898965 -0.057603113 -0.006029388
0002f0 76 22 33 bd cc 7e 08 be 33 88 42 3d 55 45 aa bd
       -0.043734036 -0.13329619 0.04749317 -0.08314005
000300 36 e2 ab bd 6c a3 ae 3d 8b 79 34 3d 27 e8 a1 bd
       -0.08392756 0.08527264 0.044061225 -0.07905608
000310 31 30 2f bc db 0c f1 3d 13 1f 02 3e bd 17 a8 bd
       -0.010692642 0.1177003 0.12707166 -0.08207653
000320 1b ad 88 3d ac 19 c3 bd 82 aa 02 3b 63 16 5f 3d
       0.06673642 -0.09526381 0.0019938056 0.05446471
000330 6d 1d 34 bd 36 14 05 be 0a 04 06 3e 16 2a 21 3d
       -0.043973375 -0.12995991 0.13087478 0.039346777
000340 84 c0 09 3e fe f5 d4 bb 5f d1 5b bd 2d 29 78 3d
       0.13452345 -0.006499051 -0.05366647 0.060586143
000350 a5 1f d7 3d ff 32 11 3d db a9 a4 3d 5d bf 1b 3c
       0.105040826 0.035449024 0.0804021 0.009506074
000360 5a c8 e7 bd e8 7d fd bc 6f 95 b2 bd 73 2a 97 3d
       -0.11317511 -0.030943826 -0.087199084 0.073811434
000370 3a 7d 67 bd 4a df 20 3d 2e 36 ae bd 97 8e db 3c
       -0.05651591 0.039275445 -0.08506428 0.02680139
000380 f3 fb c7 bd 13 0d a4 bb f9 64 42 3d 84 d7 10 bc
       -0.097648524 -0.0050064414 0.047459576 -0.008840445
000390 f4 53 cc bd b0 06 29 3d ea 0b e0 bd dd 85 32 3d
       -0.0997695 0.041266143 -0.109397724 0.043584693
0003a0 68 67 ba bd e3 3c d4 bb de 86 10 be fc 4a 89 bd
       -0.091017544 -0.006476985 -0.14113948 -0.06703755
0003b0 e2 7e 83 3d e4 f7 06 3e 07 91 8d bc 9b 83 91 3a
       0.06420685 0.131805 -0.017281068 0.0011101844
0003c0 95 e9 5d 3c a6 ab 06 3e 43 31 38 bd d1 c2 69 bc
       0.01354446 0.13151416 -0.044968855 -0.014267639
0003d0 5f ce e5 3d 57 f6 7d 3c df 7f 51 bc 77 d9 e6 3d
       0.11221003 0.0155006265 -0.0127868345 0.11271947
0003e0 08 33 06 3d 3a f3 dc 3d 02 89 23 3d 68 72 e3 bd
       0.03276351 0.10788579 0.039925583 -0.11105806
0003f0 fc 73 e1 bd 14 2f 8f 3d f3 56 3c bd 42 e3 05 3e
       -0.110084504 0.06991401 -0.04598136 0.13074973

arith.constant2 f4 [128]
000000 01 c6 2b bf 79 35 27 bf a8 9a 1a bf a6 2d 1a bf
       -0.67099005 -0.6531597 -0.60392237 -0.60225904
000010 c3 3c 15 bf a2 94 1a bf eb 63 42 bf b4 20 2f bf
       -0.5829584 -0.60383046 -0.7593371 -0.68409276
000020 58 f1 24 bf 88 7c 2a bf 73 13 18 bf 0f f4 19 bf
       -0.6443076 -0.6659627 -0.5940468 -0.6013803
000030 f3 01 25 bf 9c 30 44 bf ca 21 24 bf 80 24 23 bf
       -0.644561 -0.7663667 -0.6411406 -0.6372757
000040 d5 e2 35 bf 3d 64 13 bf af 13 20 bf 5f 42 44 bf
       -0.71049243 -0.57574826 -0.62530035 -0.76663774
000050 0b 55 2b bf 51 9b 20 bf 70 42 23 bf 2b 67 1d bf
       -0.6692664 -0.62736994 -0.6377325 -0.61485547
000060 8d 5e 22 bf 73 c8 3a bf 43 a5 25 bf f0 5e 36 bf
       -0.63425523 -0.7296211 -0.64705294 -0.71238613
000070 4d af 2d bf b2 66 05 bf 23 5a 07 bf df a8 14 bf
       -0.6784561 -0.52109826 -0.5287191 -0.58070177
000080 9d a1 31 bf e5 86 23 bf 66 6a 08 bf e8 3f 3e bf
       -0.6938723 -0.6387771 -0.5328735 -0.74316263
000090 b6 2e 2e bf 50 12 21 bf 15 45 4c bf c6 ee 45 bf
       -0.68040025 -0.6291857 -0.7979291 -0.77317464
0000a0 95 78 33 bf ab d3 28 bf 6e 09 11 bf 8e a6 3a bf
       -0.7010587 -0.6594798 -0.56655014 -0.7291039
0000b0 a3 a9 33 bf b3 19 26 bf ad c7 2e bf f5 32 12 bf
       -0.7018072 -0.64882964 -0.6827343 -0.57109004
0000c0 ae a1 2d bf 49 a8 2d bf 49 90 28 bf 4d 5e 58 bf
       -0.6782483 -0.6783491 -0.6584516 -0.8451889
0000d0 67 4a 1c bf 23 b9 24 bf da 6b 2e bf a2 88 29 bf
       -0.6105103 -0.64344996 -0.6813332 -0.6622411
0000e0 34 7d 41 bf 99 fc fd be 6d 79 25 bf d7 f8 50 bf
       -0.7558167 -0.4960678 -0.64638406 -0.816297
0000f0 06 08 29 bf 35 c4 10 bf 70 52 15 bf 11 de 04 bf
       -0.6602787 -0.5654939 -0.58328915 -0.51901346
000100 d0 e7 38 bf e6 d8 03 bf 83 c2 03 bf cb d4 2f bf
       -0.7222872 -0.51502836 -0.51468676 -0.6868407
000110 5f f4 2a bf cd 80 14 bf d0 60 1e bf 0f c7 04 bf
       -0.6677913 -0.58009034 -0.61866474 -0.5186624
000120 1e 69 22 bf 53 eb 46 bf 85 82 16 bf f7 50 2a bf
       -0.63441646 -0.77702826 -0.58792907 -0.6652979
000130 01 1b 26 bf 31 88 2e bf e0 4c 2d bf bb 36 36 bf
       -0.64884955 -0.6817656 -0.67695427 -0.7117726
000140 c5 94 44 bf 15 f6 2d bf e4 4f 18 bf e9 71 21 bf
       -0.76789504 -0.67953616 -0.59496903 -0.6306444
000150 db 76 36 bf af 4d 35 bf 0f a8 39 bf 83 8d 47 bf
       -0.7127511 -0.7082166 -0.7252206 -0.77950305
000160 14 ae 2e bf a4 f5 23 bf 6e 2a 1f bf 17 00 25 bf
       -0.6823437 -0.6404669 -0.6217412 -0.6445326
000170 fa f7 fe be ec 45 38 bf 4a 9e 1b bf 36 e5 3c bf
       -0.49798566 -0.7198169 -0.60788405 -0.7378725
000180 a0 03 06 bf a8 2c 03 bf 47 c1 24 bf 9d c4 2f bf
       -0.5234928 -0.51240015 -0.6435742 -0.68659383
000190 65 cb 2a bf 3a aa 19 bf 80 41 2d bf 3b 84 27 bf
       -0.66716605 -0.6002537 -0.6767807 -0.6543614
0001a0 5d 65 3a bf 23 09 3a bf 6a 06 f4 be 79 06 3f bf
       -0.7281092 -0.7267019 -0.47661144 -0.7461925
0001b0 06 fe 1c bf 99 41 33 bf 9d 71 1f bf 45 26 36 bf
       -0.6132511 -0.7002197 -0.62282735 -0.71152145
0001c0 5e 5e 15 bf cc 3f 1f bf 4b e9 0a bf 24 a9 0b bf
       -0.5834712 -0.6220672 -0.54262227 -0.54554963
0001d0 de 4d 41 bf 2e 6f 1e bf 51 79 20 bf b9 5e 48 bf
       -0.7550944 -0.61888397 -0.62685114 -0.78269535
0001e0 79 cb 2e bf 44 c5 28 bf 4b 9b 31 bf 30 c6 0e bf
       -0.68279225 -0.65926003 -0.69377583 -0.5577116
0001f0 83 de 21 bf c6 f2 0b bf a7 07 52 bf 6a f2 12 bf
       -0.6323015 -0.5466732 -0.82042927 -0.57401145

arith.constant3 f4 [128]
000000 55 0d bd 3f c0 e5 8f 3f 27 86 69 3f e0 e9 a2 3f
       1.4769694 1.1241989 0.91220325 1.2727623
000010 7b c5 a2 3f d8 28 94 3f c1 bb b0 3f 37 bc bf 3f
       1.2716516 1.1574965 1.3807298 1.4979314
000020 71 2d 8d 3f a6 14 bb 3f c0 dc 99 3f 49 cf b4 3f
       1.1029493 1.4615676 1.2020493 1.4125758
000030 e5 0d 9c 3f 11 e2 a3 3f 52 0b a8 3f cd c7 89 3f
       1.219174 1.2803365 1.3128455 1.0764099
000040 12 69 a5 3f b8 86 a0 3f 71 66 9c 3f aa 1f 98 3f
       1.292269 1.2541113 1.2218763 1.1884663
000050 be be ba 3f ad ed a2 3f c0 7d 9c 3f 9d b2 85 3f
       1.458946 1.2728783 1.2225876 1.0445133
000060 dc b4 ac 3f 55 d7 a3 3f 2c 34 98 3f f9 44 a2 3f
       1.3492694 1.2800089 1.1890922 1.2677299
000070 6d 02 ab 3f 08 da 69 3f f8 80 93 3f 2d d7 90 3f
       1.3360115 0.91348314 1.1523733 1.1315666
000080 49 4b cc 3f f3 cf 97 3f ef 12 78 3f 72 f7 8d 3f
       1.5960475 1.1860336 0.9690389 1.1091139
000090 eb 04 ce 3f 0b f5 a2 3f ce 11 7f 3f ea df 7b 3f
       1.6095251 1.2731031 0.9963654 0.9838854
0000a0 83 2b 9a 3f 12 d4 80 3f 4c df 88 3f 40 5d b0 3f
       1.2044529 1.0064719 1.0693145 1.3778458
0000b0 14 c4 a6 3f 78 57 a5 3f cb a1 95 3f ce d4 9a 3f
       1.3028588 1.2917318 1.169 1.2096193
0000c0 b8 90 bd 3f a6 83 9b 3f c5 3a 95 3f 8e 06 8c 3f
       1.480979 1.2149551 1.165856 1.09395
0000d0 8d ac 93 3f 1a 6c b6 3f a0 71 c9 3f a9 a2 a7 3f
       1.1537033 1.425174 1.5737801 1.3096515
0000e0 b3 d5 a5 3f 2e 9d 67 3f 6a 01 b7 3f ff 74 bf 3f
       1.2955841 0.9047421 1.4297307 1.4957579
0000f0 68 21 9f 3f 23 de 9a 3f 86 d7 94 3f cb 2c 75 3f
       1.243207 1.2099041 1.1628273 0.95771474
000100 76 92 9d 3f 6e 43 4c 3f 42 56 8d 3f 2f cd 99 3f
       1.2310321 0.7979039 1.1041949 1.2015742
000110 95 59 9f 3f 43 af 76 3f 8e 7e 9a 3f f8 0b 75 3f
       1.2449213 0.9636118 1.2069871 0.9572139
000120 18 0d 93 3f 16 9e 9e 3f 58 48 9e 3f a9 fb 9c 3f
       1.1488371 1.2391994 1.2365828 1.22643
000130 6e e0 9e 3f e1 b0 b7 3f 43 b8 ad 3f 66 e6 ad 3f
       1.241224 1.4350854 1.3571857 1.3585937
000140 09 56 af 3f 4d 24 b2 3f 41 0b ac 3f f7 50 bb 3f
       1.3698131 1.3917328 1.3440934 1.4634084
000150 a1 c0 7b 3f 27 09 9c 3f 33 cd 84 3f b4 54 af 3f
       0.98340803 1.2190293 1.0375122 1.3697724
000160 17 05 b0 3f 79 97 8e 3f 76 03 9f 3f bb 61 98 3f
       1.3751553 1.1139976 1.2422931 1.1904825
000170 1a 89 99 3f 01 6f aa 3f e3 7b 93 3f f7 7d 97 3f
       1.1994965 1.3315126 1.1522182 1.1835316
000180 dd 1a 8b 3f 2e 61 69 3f 34 a1 be 3f 9b ea 85 3f
       1.0867573 0.9116391 1.4892945 1.0462221
000190 3a 39 99 3f 58 f6 9e 3f c4 b9 92 3f 21 b7 ba 3f
       1.1970589 1.2418928 1.1462941 1.4587137
0001a0 eb c8 b1 3f d1 02 79 3f 57 92 67 3f ae 44 a0 3f
       1.388944 0.9726992 0.9045767 1.2520959
0001b0 c6 50 9e 3f c2 62 a8 3f 67 9b 9f 3f e5 3c b9 3f
       1.23684 1.3155138 1.24693 1.4471709
0001c0 19 56 88 3f 4b f5 94 3f 3e c4 87 3f ca f3 71 3f
       1.0651275 1.1637357 1.0606763 0.9451262
0001d0 57 cf 89 3f c3 5f 86 3f 78 5e a3 3f 2a 9a 95 3f
       1.07664 1.0497974 1.2763205 1.1687672
0001e0 2c b9 94 3f c3 98 94 3f b0 1e b0 3f 8f a7 98 3f
       1.161901 1.1609119 1.3759365 1.1926135
0001f0 1b 21 89 3f b6 90 71 3f 90 3b a0 3f 02 22 6a 3f
       1.0713228 0.94361436 1.2518177 0.9145814

arith.constant4 f4 [128]
000000 7c d6 5d be 7c 7b 35 bf de 67 b1 be 28 26 be be
       -0.2166385 -0.7089155 -0.34649557 -0.37138486
000010 3d 21 12 bf 60 1b b3 be d3 b0 ef be 95 a5 20 be
       -0.5708197 -0.34981823 -0.46814594 -0.15688165
000020 68 01 0f bf 8d 9a 9d be d5 35 4e bf 9f e7 18 bf
       -0.5586152 -0.30781975 -0.8055089 -0.59728426
000030 45 3f e0 be 8b ee 0b bf 2f de a8 be 4b 60 a4 be
       -0.4379827 -0.5466086 -0.32982013 -0.32104716
000040 32 e4 8c bf 06 8a 2c bf f9 41 91 be 10 5e d2 be
       -1.100714 -0.6739811 -0.28370646 -0.4108739
000050 d8 e7 4b bf 2b 82 de be 38 16 90 be 32 4c ea be
       -0.7965064 -0.43458685 -0.28141952 -0.45761257
000060 2f 07 81 be 60 39 4a bf 9d 16 99 be 4b 44 aa be
       -0.25200793 -0.789938 -0.29900065 -0.33255228
000070 70 3a f9 be f7 76 c8 be 1b e8 0f bf 97 3a 45 bf
       -0.48677397 -0.39153263 -0.5621354 -0.77042526
000080 30 a4 2d be b9 05 32 bf d7 01 4e be 40 6d 56 bf
       -0.16957164 -0.6953998 -0.2011789 -0.8376045
000090 b1 30 ba be a3 b5 20 bf c4 41 e9 be 46 e8 4b bf
       -0.36365274 -0.62777156 -0.45557988 -0.79651296
0000a0 56 d0 74 be bf aa c9 be 79 c4 d4 be f0 4f 9f be
       -0.23907599 -0.3938808 -0.41556147 -0.31115675
0000b0 64 95 cb be 87 83 ea be 08 02 1c bf 13 69 a4 be
       -0.39762414 -0.45803472 -0.609406 -0.32111415
0000c0 2b b2 84 be ef 8c a5 be 8d 15 05 bf 74 1e 20 bf
       -0.2591718 -0.32334086 -0.5198601 -0.6254647
0000d0 bf ca 72 bf 46 c5 37 bf 0b 30 22 bf fe c7 9f be
       -0.94840616 -0.7178539 -0.6335456 -0.3120727
0000e0 0e 8e 8b be a3 e6 16 bf 81 4b 26 bf 32 09 f1 be
       -0.27256817 -0.58945674 -0.6495896 -0.47077328
0000f0 68 42 f0 be 20 eb e8 be f0 bb 87 be d6 54 31 bf
       -0.46925664 -0.45491886 -0.26510572 -0.69270074
000100 90 af e4 be cf ca 08 bf a9 9f 02 bf 1d fb e4 be
       -0.44665194 -0.5343446 -0.5102487 -0.44722834
000110 d4 03 8a be df 90 ab be 57 95 6f be f1 94 88 be
       -0.26956046 -0.33508965 -0.23396812 -0.26676133
000120 c9 a1 0b bf 09 35 3c bf b2 e0 48 bf 9a 61 37 bf
       -0.5454374 -0.73518425 -0.7846786 -0.71633303
000130 14 9c 99 be 65 c0 7e be 9e 4c 99 be e5 b2 a7 be
       -0.3000189 -0.2487808 -0.29941267 -0.32753673
000140 19 31 a5 be 0a 1f 06 bf d5 4e 06 bf 2b 53 38 bf
       -0.3226402 -0.5239111 -0.5246404 -0.72001904
000150 ce ad 02 be 1e 08 f1 be 74 ae 82 bf 5e b8 d4 be
       -0.12761614 -0.47076505 -1.0209489 -0.4154691
000160 79 5a c8 be f2 b7 16 bf 22 41 c0 be 84 a4 12 bf
       -0.39131525 -0.5887443 -0.37549692 -0.5728228
000170 54 26 8b bf d9 a1 12 bf 6c 90 c4 be 57 11 ff be
       -1.0871072 -0.5727821 -0.38391435 -0.49817917
000180 fa b3 8d be a3 43 1a bf a8 6c b8 be 7e a0 bb be
       -0.27676374 -0.60259455 -0.36020398 -0.36645883
000190 53 53 58 bf f2 60 30 bf ce 30 1c bf eb 12 4c be
       -0.8450214 -0.68897927 -0.6101197 -0.19929092
0001a0 6a 97 7d bf a9 b7 88 bf 54 55 c7 be 25 74 09 bf
       -0.99059165 -1.0681049 -0.38932288 -0.5369285
0001b0 07 11 06 bf 33 ef fc be 22 f3 8c be 46 ab f8 be
       -0.5236973 -0.49401245 -0.27529246 -0.4856817
0001c0 87 b6 0b be e9 6f f7 be e3 84 25 bf c7 bc 96 be
       -0.13643847 -0.48327568 -0.64655894 -0.294409
0001d0 ca 9e fa be 41 a6 ae be f9 0c f6 be 8c 61 25 bf
       -0.4894927 -0.34111217 -0.48056772 -0.6460197
0001e0 eb 65 a2 be 4f 0a f2 be a1 27 2a bf d0 9c 04 bf
       -0.31718382 -0.4727349 -0.6646672 -0.51801777
0001f0 f8 72 08 bf de 10 e5 be a4 b8 a1 be 07 15 0f bf
       -0.5330043 -0.4473943 -0.31586182 -0.5589146

arith.constant5 f4 [128]
000000 4b 79 75 40 e3 6f 8b 3f f3 c8 e6 3f 00 11 23 40
       3.8355281 1.089352 1.8030075 2.5479126
000010 ea 5f 92 3f 4a 27 00 40 52 3d de 3f 5f fc 8e 40
       1.1435521 2.002398 1.7362463 4.468307
000020 d0 d9 bb 3f 8a 9e 44 40 45 4c 84 3f b8 99 95 3f
       1.4675846 3.0721765 1.0335776 1.1687536
000030 f8 dc d1 3f 41 bd a3 3f b3 5e 01 40 14 87 1c 40
       1.6395559 1.2792131 2.021405 2.4457445
000040 1e 3a 82 3f 7a e4 c1 3f ae 2b 07 40 d4 91 ca 3f
       1.0173986 1.514785 2.112041 1.5825753
000050 2f 24 9b 3f 3b f6 d8 3f 02 97 21 40 a0 d0 02 40
       1.2120417 1.6950144 2.5248418 2.0439835
000060 4d a8 01 40 00 70 77 3f 5e e5 e8 3f 2f a1 10 40
       2.0258973 0.96655273 1.8194997 2.2598379
000070 70 33 a9 3f 28 32 de 3f 38 fd 8d 3f ee 5c 63 3f
       1.3218822 1.7359056 1.1092901 0.88813674
000080 c4 38 65 40 ce 49 bd 3f cb d1 37 40 4a 8f 8f 3f
       3.5815897 1.4788148 2.8721797 1.1215603
000090 34 c5 f2 3f 73 7c 90 3f 1f 4b 9a 3f 2c 92 7a 3f
       1.8966432 1.1287979 1.2054175 0.9787929
0000a0 42 0b 65 40 64 4b cc 3f be 45 fd 3f 99 ef 29 40
       3.5788121 1.5960507 1.9786909 2.6552489
0000b0 4b 36 ff 3f 48 74 cb 3f 4a c9 a9 3f 27 56 e7 3f
       1.9938444 1.5894861 1.3264554 1.8073167
0000c0 64 59 32 40 d8 39 d5 3f d3 0e 7a 3f f2 87 a5 3f
       2.786706 1.6658278 0.9767887 1.2932112
0000d0 8e a3 6c 3f 21 c2 86 3f 85 da 2a 3f af b2 f6 3f
       0.92437065 1.0527993 0.66739684 1.927328
0000e0 18 06 89 40 a6 43 85 3f 0e 00 7b 3f d7 2e a9 3f
       4.281994 1.041127 0.9804696 1.3217419
0000f0 65 3a 9f 3f 5a 25 b6 3f 32 ee 34 40 5b ae 63 3f
       1.2439696 1.4230149 2.8270383 0.8893792
000100 03 7a e1 3f 72 1b 8f 3f c5 82 ab 3f 5f b7 9f 3f
       1.761536 1.1180251 1.3399283 1.2477835
000110 7e 20 50 40 00 c3 f7 3f 6c ae 4b 40 11 12 42 40
       3.2519832 1.9356384 3.1825209 3.0323527
000120 56 15 a0 3f 7a 2a 8a 3f b8 e0 97 3f 3b 53 6f 3f
       1.2506511 1.0794213 1.1865454 0.93486375
000130 db 6d 3a 40 e1 6e 9a 40 ad fb 1e 40 62 c5 d9 3f
       2.912955 4.826035 2.484111 1.7013361
000140 60 d8 24 40 d4 43 cb 3f 77 42 b4 3f 9e cf 9a 3f
       2.5757065 1.5880075 1.4082783 1.209461
000150 1d 17 77 40 31 45 c9 3f 9d ed 74 3f 18 16 10 40
       3.8607857 1.572424 0.9567507 2.2513485
000160 8b 72 eb 3f 5a 8c a8 3f 09 54 bc 3f 96 53 ab 3f
       1.8394331 1.3167832 1.4713145 1.3384883
000170 73 7f 57 3f f5 8d a9 3f bf 56 16 40 5a fb 91 3f
       0.8417885 1.3246447 2.3490446 1.1404831
000180 d4 e0 19 40 bd d4 97 3f a4 3e 0d 40 b3 83 c2 3f
       2.4043474 1.1861798 2.2069483 1.5196441
000190 6c 2c 83 3f 27 e7 89 3f 23 70 a9 3f 15 2c 93 40
       1.0247931 1.0773667 1.3237346 4.599131
0001a0 61 59 69 3f ed 25 65 3f e9 59 06 40 48 5a b4 3f
       0.91152006 0.89510995 2.0992377 1.4090052
0001b0 9f 1f 9a 3f 5a b8 ad 3f f2 eb 0e 40 21 e4 d7 3f
       1.20409 1.3571885 2.233151 1.6866494
0001c0 2f 54 a6 40 9b ef d4 3f 56 94 95 3f fa 36 36 40
       5.1977763 1.6635622 1.1685894 2.8471055
0001d0 2e 3b f0 3f 1f 1e f7 3f 95 7d f0 3f 59 f3 61 3f
       1.876806 1.9306067 1.8788325 0.88261944
0001e0 1f 6c f1 3f 65 06 03 40 91 e3 86 3f 77 34 50 3f
       1.8861121 2.0472653 1.0538198 0.81330055
0001f0 e8 99 78 3f 52 5c 90 3f 27 90 39 40 1d 73 ee 3f
       0.9710984 1.1278174 2.8994234 1.862888

arith.constant6 f4 [64]
000000 50 66 15 bf 5c e2 3d bf f4 8d 2a bf ea da 18 bf
       -0.5835924 -0.7417352 -0.66622853 -0.59709036
000010 e4 d6 19 bf 3e b2 3b bf 17 12 25 bf cc 43 07 bf
       -0.6009352 -0.7331885 -0.6448073 -0.52837825
000020 0c 6c 33 bf 79 11 40 bf 41 10 0a bf ae ee 1e bf
       -0.7008674 -0.7502666 -0.5393105 -0.62082946
000030 d5 16 17 bf c1 8c 3a bf 2c 8e 1c bf 47 5d 15 bf
       -0.59019214 -0.72871023 -0.6115444 -0.58345455
000040 28 d6 44 bf 28 d9 27 bf 99 94 35 bf 7e ce 17 bf
       -0.76889277 -0.6556573 -0.7092987 -0.5929946
000050 70 31 2b bf 20 68 14 bf 61 1e 21 bf 76 96 27 bf
       -0.6687231 -0.5797138 -0.6293698 -0.6546396
000060 02 49 3f bf ac c0 16 bf bd 0b 35 bf b5 30 24 bf
       -0.74720776 -0.58887744 -0.70721036 -0.6413682
000070 dc 11 2b bf d1 37 27 bf 91 27 3f bf a9 25 18 bf
       -0.66824126 -0.65319544 -0.7466975 -0.59432465
000080 bb 22 37 bf bf 99 41 bf 95 f3 2b bf e0 f3 27 bf
       -0.7153737 -0.7562522 -0.6716855 -0.656065
000090 28 e5 23 bf bd 08 25 bf d9 1c 44 bf 21 1a 36 bf
       -0.6402154 -0.6446646 -0.7660652 -0.7113362
0000a0 3f 9c 0b bf 18 f4 0f bf 1d 4c 37 bf c6 a3 16 bf
       -0.5453529 -0.5623183 -0.71600515 -0.5884365
0000b0 01 ca 43 bf 33 72 14 bf b3 7e 47 bf e8 3a 1b bf
       -0.7648011 -0.57986754 -0.779277 -0.6063676
0000c0 b7 73 1b bf 90 13 49 bf 67 1d 0f bf a9 27 3a bf
       -0.6072344 -0.78545475 -0.5590424 -0.72716767
0000d0 3f ed 12 bf e5 7f 0e bf 85 77 3e bf 2b 00 26 bf
       -0.5739326 -0.556639 -0.7440112 -0.64844006
0000e0 c7 6a 1a bf 09 50 38 bf 4f 8e 34 bf 35 fa 1e bf
       -0.6031918 -0.71997124 -0.70529646 -0.62100536
0000f0 fb 1a 22 bf 33 7b 0c bf cd 12 11 bf de a9 22 bf
       -0.6332242 -0.5487549 -0.5666931 -0.63540447

arith.constant7 f4 [64]
000000 23 f2 b7 3f a4 23 de 3f ac de be 3f 57 f5 c6 3f
       1.4370769 1.7354627 1.4911704 1.5543622
000010 37 4e 9d 3f c5 16 df 3f 4f bf ba 3f 9b 97 a2 3f
       1.2289494 1.7428824 1.4589633 1.2702516
000020 1f d4 b6 3f a5 6e f9 3f aa 6b 71 3f be d7 9e 3f
       1.4283484 1.9486891 0.9430491 1.2409589
000030 05 83 e3 3f 37 12 a4 3f 2c 2b b7 3f d0 b4 d6 3f
       1.7774359 1.2818059 1.431005 1.677393
000040 2c 4f d2 3f 90 8a ac 3f d2 04 94 3f c3 ee c7 3f
       1.6430411 1.3479786 1.1563971 1.5619739
000050 2f ce af 3f c7 07 b0 3f 6f d4 bc 3f 7e f9 c3 3f
       1.3734797 1.3752373 1.475233 1.5310514
000060 c0 1c df 3f b6 0d c2 3f 9a f6 bd 3f 3d c5 bf 3f
       1.7430649 1.5160434 1.4840882 1.4982067
000070 8b a5 d2 3f 68 94 a4 3f ba a4 e2 3f 26 4c 73 3f
       1.645677 1.285779 1.770652 0.9503807
000080 fa b9 96 3f 7c 37 cc 3f 29 ff c7 3f 5c b3 7f 3f
       1.1775506 1.5954432 1.5624744 0.99883056
000090 e3 4f c8 3f 84 58 e6 3f 73 28 d1 3f b3 35 f0 3f
       1.564938 1.7995763 1.6340469 1.8766388
0000a0 37 2f 9f 3f 08 67 a8 3f 38 10 c7 3f fe c4 d3 3f
       1.2436284 1.3156443 1.5551825 1.6544492
0000b0 aa 38 cf 3f 00 0d 9e 3f dc a5 f4 3f 6e e2 af 3f
       1.6189167 1.2347717 1.9113116 1.3740976
0000c0 11 3d a4 3f 5e 03 c4 3f 21 ec 84 3f d3 0b f1 3f
       1.2831136 1.5313528 1.0384561 1.8831733
0000d0 12 50 c3 3f f1 79 65 3f 4c 00 71 3f 1d d0 c1 3f
       1.525881 0.8963919 0.9414108 1.5141636
0000e0 9d 02 a4 3f 74 a0 d8 3f 52 53 c8 3f 84 63 ab 3f
       1.2813298 1.6923966 1.5650427 1.3389745
0000f0 41 95 d7 3f aa b6 b7 3f 75 b4 ca 3f 83 da cf 3f
       1.6842424 1.435262 1.5836321 1.623856

arith.constant8 f4 [64]
000000 3a de 5a bf 5c ab 2e bf f4 2d 03 bf 74 bd 12 bf
       -0.8549534 -0.68230224 -0.51241994 -0.5732033
000010 cf c5 07 bf 9d 7a 29 bf 15 94 24 bf 57 74 05 bf
       -0.53036207 -0.6620272 -0.64288455 -0.52130646
000020 77 2c 13 bf ae 17 1d bf 6b 3d 40 bf 99 5e 1a bf
       -0.5748972 -0.6136426 -0.75093716 -0.60300595
000030 6c 92 2b bf 6a 30 42 bf c2 0d 03 bf 9d c1 0a bf
       -0.670203 -0.75855124 -0.5119287 -0.5420168
000040 b0 18 e4 be 4b a8 2c bf 30 01 39 bf 16 c8 11 bf
       -0.44550085 -0.67444295 -0.72267437 -0.5694593
000050 54 0b 14 bf 9b 4d 30 bf a6 42 5a bf 85 b5 1b bf
       -0.57829785 -0.68868417 -0.8525795 -0.6082385
000060 c2 a4 3b bf 50 47 47 bf c9 4f 26 bf 4f 8b 3f bf
       -0.73298275 -0.7784319 -0.6496549 -0.74821943
000070 10 3c 42 bf b7 c7 4d bf 36 ac 1b bf 6b 81 38 bf
       -0.758729 -0.80382866 -0.6080965 -0.72072476
000080 80 07 1a bf be af 12 bf 79 db fa be 16 48 12 bf
       -0.60167694 -0.5729941 -0.4899557 -0.57141244
000090 65 15 d4 be f2 45 1e bf 89 9c 50 bf 99 a6 00 bf
       -0.41422573 -0.6182548 -0.81488854 -0.5025421
0000a0 9d 23 32 bf 68 91 30 bf 50 a8 08 bf f1 c6 32 bf
       -0.6958559 -0.6897187 -0.53381824 -0.6983481
0000b0 49 66 27 bf f7 af 5a bf e4 a2 39 bf b8 b5 30 bf
       -0.6539045 -0.8542475 -0.72514176 -0.6902728
0000c0 1f 83 47 bf d1 8d fd be 25 f7 10 bf af 6b 51 bf
       -0.7793445 -0.4952226 -0.5662711 -0.8180494
0000d0 f1 29 14 bf 7b b1 33 bf 06 5f 25 bf 58 dd 5e bf
       -0.578765 -0.7019269 -0.6459812 -0.87056494
0000e0 34 54 3c bf 60 c5 39 bf 3b d3 c2 be 84 23 0d bf
       -0.73565984 -0.72566795 -0.3805178 -0.5513232
0000f0 b5 a8 1a bf 5c c8 06 bf 39 9f 29 bf 46 90 fb be
       -0.60413677 -0.52649474 -0.6625858 -0.4913351

arith.constant9 f4 [64]
000000 3b a2 a8 3f 61 35 ab 3f c9 62 07 40 ee 81 07 40
       1.3174509 1.3375665 2.1154044 2.1173053
000010 07 83 e4 3f 27 fb c6 3f bd 8f ca 3f 6e 60 ea 3f
       1.7852486 1.5545396 1.5825115 1.8310678
000020 9e 72 e6 3f 49 9a a1 3f 62 fd b2 3f 01 de b7 3f
       1.8003728 1.2625209 1.3983576 1.4364625
000030 75 e5 ae 3f ef 6d aa 3f a3 57 ad 3f c1 84 f6 3f
       1.3663775 1.3314799 1.354237 1.9259263
000040 88 81 03 40 a5 6e ac 3f 1a f2 c4 3f 35 3d d3 3f
       2.054781 1.3471266 1.5386384 1.6503054
000050 54 fc e2 3f df 1b 97 3f 3e 85 84 3f 9d 58 c2 3f
       1.7733254 1.180538 1.0353162 1.5183293
000060 d7 d7 8d 3f 68 26 3c 3f 38 2c e5 3f ba 59 8d 3f
       1.1081494 0.73496103 1.790412 1.1043007
000070 5e 7f 85 3f 41 bb 52 3f 01 39 d9 3f 66 63 ce 3f
       1.0429494 0.82316977 1.6970521 1.6124084
000080 83 1b 93 3f c6 bf 06 40 71 40 31 40 2a 94 ee 3f
       1.1492771 2.105455 2.7695582 1.8638966
000090 88 bc 20 40 7d 19 9a 3f 62 55 d9 3f 58 1b 00 40
       2.511507 1.2039028 1.6979182 2.001669
0000a0 66 4f 03 40 a3 3e ef 3f ca ee dc 3f 25 86 c6 3f
       2.051721 1.869099 1.7260373 1.5509688
0000b0 81 a5 5d 3f 79 8b 8d 3f e2 44 da 3f b2 47 a4 3f
       0.86580664 1.1058189 1.7052271 1.283438
0000c0 b6 dd ac 3f 0b 20 24 40 e8 35 80 3f 3f 78 d3 3f
       1.3505161 2.5644557 1.0016451 1.6521071
0000d0 97 0a e3 3f 43 e6 fe 3f ee 32 c5 3f a2 c5 83 3f
       1.7737607 1.991402 1.5406168 1.0294688
0000e0 68 e3 b6 3f a8 71 c0 3f d4 24 1b 40 12 48 d5 3f
       1.4288149 1.5034685 2.4241228 1.6662619
0000f0 10 12 b4 3f f6 4d b6 3f a8 bb a9 3f 48 20 86 3f
       1.4068012 1.4242542 1.3260393 1.0478601

arith.constant10 f4 [32]
000000 bc 1a a7 bd bc 2e 06 bf 74 3f 1a c0 cd 6d 3e bd
       -0.08159396 -0.5241506 -2.4101229 -0.046491433
000010 ca ac d7 3c 2c 36 c0 bf c8 3c 56 3c 87 04 e9 bf
       0.02632751 -1.5016532 0.013076015 -1.8204507
000020 38 ee 47 3b 6a 4f 28 c0 f9 6d ba bc c5 a8 5e bf
       0.003050698 -2.629847 -0.022757517 -0.8697627
000030 a8 37 e0 bf 22 48 13 be 22 8e c5 3c a6 d0 d3 bc
       -1.7516985 -0.14382985 0.024115626 -0.025856327
000040 99 dd fb bf 09 da b6 bf d9 d9 11 c0 a5 bc 86 bc
       -1.9677001 -1.4285289 -2.2789214 -0.016447375
000050 1d 0f 48 bf ad d3 09 bc e2 15 00 c0 6a 5e b6 3c
       -0.7814806 -0.008412284 -2.0013356 0.022261817
000060 80 bb e4 3b d5 72 8a be 38 7f 11 c0 b0 fd 28 c0
       0.0069803596 -0.27040735 -2.2733898 -2.6404839
000070 27 5c b8 be 0a 3c b5 3c b5 7c 23 c0 98 31 2e bf
       -0.36007807 0.022123355 -2.5544865 -0.68044424

arith.constant11 f4 [32]
000000 3d e2 f1 41 7f 4a da 41 b9 a6 3f 41 b9 12 f7 41
       30.235468 27.286375 11.978204 30.884142
000010 63 21 fa 41 58 01 44 41 81 45 fa 41 c8 08 58 41
       31.266302 12.250328 31.283937 13.502144
000020 91 ce fb 41 03 72 38 41 d0 70 00 42 a5 ab c7 41
       31.475863 11.527835 32.11017 24.95881
000030 38 51 6d 41 60 33 ea 41 0a 28 00 42 9f b5 01 42
       14.832329 29.275085 32.0391 32.427364
000040 17 38 34 41 1e 2a ac 41 7f 46 33 41 e6 e4 00 42
       11.263694 21.520565 11.204711 32.223534
000050 ff 46 a7 41 d7 7d ff 41 8c f5 96 41 f0 3f fc 41
       20.909666 31.936445 18.869896 31.53122
000060 77 74 f5 41 04 36 a9 41 5f 40 04 41 d2 19 4a 41
       30.681868 21.151375 8.265716 12.631304
000070 61 23 c5 41 dd f9 03 42 27 b1 c6 40 5f fa b4 41
       24.642275 32.994007 6.209125 22.622252

arith.constant12 f4 [32]
000000 d2 c1 1a bf 12 66 2d bf c8 50 2a bf b8 c8 1b bf
       -0.60451996 -0.6773387 -0.6652951 -0.6085315
000010 62 4f 1b bf 38 33 3d bf f6 8b 60 bf 22 24 67 bf
       -0.60668004 -0.7390628 -0.87713563 -0.9028951
000020 61 36 10 bf b5 3e 08 bf 97 61 f6 be d2 d3 15 bf
       -0.56332976 -0.53220683 -0.4812133 -0.5852634
000030 95 c8 1b bf 75 48 35 bf af 93 49 bf 94 a4 28 bf
       -0.6085294 -0.70813686 -0.7874097 -0.65876126
000040 bf 54 18 bf ed 66 02 bf d9 0a 5d bf 75 ba 2f bf
       -0.5950431 -0.509383 -0.8634468 -0.68643886
000050 56 f9 27 bf c8 70 34 bf 3f a4 21 bf 6d 53 2b bf
       -0.6561483 -0.7048459 -0.63141245 -0.6692417
000060 12 6e 36 bf 60 aa fe be ca 5d 49 bf 58 09 af be
       -0.71261704 -0.4973936 -0.78658736 -0.34186816
000070 30 34 30 bf e6 a5 55 bf e1 ca 41 bf 05 71 29 bf
       -0.6882963 -0.83456266 -0.75700194 -0.6618808

arith.constant13 f4 [32]
000000 7f b1 3c 40 46 2d 62 40 3c 81 12 40 7e 1d 55 40
       2.9483335 3.5340133 2.2891378 3.329925
000010 e1 ca e2 3f 27 15 b8 40 f5 69 9a 40 f0 15 85 40
       1.7718164 5.752582 4.825434 4.158928
000020 a3 92 4d 40 30 2e 78 40 5d 41 6f 40 29 f2 08 40
       3.212075 3.877819 3.7383645 2.1397803
000030 13 43 2e 40 49 e2 3b 40 44 85 83 40 91 c2 19 40
       2.722844 2.9356863 4.110018 2.4025004
000040 7a 34 44 40 a0 4c 2f 40 99 f9 95 40 75 a6 5b 40
       3.065703 2.7390518 4.6867185 3.4320347
000050 f0 de 26 40 d3 1a f9 3f dd 4a f7 3f aa f7 6a 40
       2.607357 1.9461311 1.9319721 3.6713662
000060 e8 7e b6 3f 6e 4a 75 40 94 ff cb 3f 5c 53 c5 40
       1.4257479 3.8326678 1.5937371 6.1664257
000070 62 d9 07 40 10 6b 2a 40 fb 16 f3 3f fa ee 1f 40
       2.122643 2.6627846 1.8991388 2.498961

arith.constant15 f4 [512]
000000 01 9a 2a 3c 47 a0 b8 bb b9 ce 7c bc 83 d5 f7 bb
       0.010412694 -0.005634341 -0.015430146 -0.0075632944
000010 bb 7e 9a 3c 35 59 19 bc 47 e3 ce bb 7c 08 8e ba
       0.018859258 -0.0093596475 -0.0063137147 -0.0010836269
000020 61 57 65 bb 17 b7 0a 3b 09 9c 00 bc f5 cf af ba
       -0.003499471 0.002116626 -0.007849702 -0.0013413416
000030 24 ba 41 bb a4 69 28 bc f4 a3 26 bc 79 f0 3d 3a
       -0.0029560411 -0.010279093 -0.010170925 0.0007245611
000040 55 e4 05 bc d6 25 73 bc ec d8 31 bb c9 5f eb bb
       -0.008172114 -0.014840564 -0.0027137352 -0.0071830493
000050 65 4d 00 3c 90 eb 4f bc ca 23 c0 3c 17 c6 20 39
       0.007830952 -0.01269044 0.023454566 0.00015332583
000060 68 05 93 3c e6 b3 26 bb 1c 69 61 bb cb 5f a3 3b
       0.017946914 -0.0025436818 -0.0034394925 0.0049857846
000070 9f 02 46 bc 4f d6 ac bb 57 7b b2 bc c3 5c 7e bb
       -0.012085586 -0.005274571 -0.021787329 -0.0038812615
000080 99 4f 2c bc ab ff 69 bb 2b 1a ec bb 17 38 35 bb
       -0.010517024 -0.0035705369 -0.007205268 -0.002765184
000090 d2 0c d7 bb db c4 09 bc c1 63 26 b9 99 81 60 bc
       -0.0065628076 -0.00840875 -0.00015868155 -0.0137027735
0000a0 45 78 a9 3b ce 04 b7 bb 9c c4 f7 bb ea df c5 bb
       0.005171808 -0.0055852896 -0.0075612795 -0.0060386555
0000b0 91 3c 8f bb c5 ab 08 bc be 58 71 bc 00 d2 bd 3b
       -0.0043712338 -0.008341734 -0.01473063 0.005792856
0000c0 17 48 a2 bb b0 53 59 ba a7 c7 30 bc 8b 5a 92 3b
       -0.0049524414 -0.00082903635 -0.010789788 0.00446636
0000d0 8e e5 7f 3c bb e4 08 bc 32 90 af bc fc 48 db 3a
       0.015618695 -0.008355315 -0.021431062 0.0016730125
0000e0 06 90 4b bc d0 fd 1b 3c c1 02 4a ba df f9 ab 3c
       -0.012424475 0.009520963 -0.0007706099 0.020993171
0000f0 7b 45 1a bc 2b 4b dc ba f6 67 35 bc af 72 31 bc
       -0.0094159795 -0.001680707 -0.0110721495 -0.010830565
000100 43 00 ca bb ef 9b 4d 3b 51 90 e4 bb a4 a1 14 3c
       -0.006164582 0.0031373461 -0.0069752117 0.009071741
000110 f0 2f 48 bc 2e 05 37 bc f3 d8 69 bc 4a f5 5a bb
       -0.01221846 -0.0111706685 -0.014272916 -0.0033410364
000120 4c fe a3 3c 4d 3b 85 39 9e da 8f bc d8 77 83 bb
       0.02001872 0.0002541192 -0.0175603 -0.004012089
000130 9b 50 17 bc 60 b9 09 3d ea f4 04 3d f3 06 ed 3b
       -0.009235526 0.033624053 0.03246013 0.0072334944
000140 1e 17 0d 3b bd be ea bb 6c 27 00 bc 7a dc 5d 3c
       0.0021528671 -0.007163851 -0.007821899 0.013541335
000150 da 3a c1 39 29 7a 8f bc c8 1c 91 bb ac ad 38 bc
       0.00036855676 -0.017514305 -0.00442848 -0.011271875
000160 df a9 a6 39 41 66 1c 3c 47 72 6a bc 81 c9 04 bb
       0.0003178855 0.009545864 -0.014309472 -0.0020261707
000170 f3 37 56 bb 42 e7 ed 37 e6 14 1b 3c c1 e0 94 3c
       -0.0032687157 2.836029e-05 0.009465432 0.018173577
000180 50 63 bb bb 41 47 2a bb 39 91 34 bc 31 3a a2 bb
       -0.005718626 -0.0025982412 -0.011020952 -0.0049507846
000190 91 f6 86 bc a0 4f b9 bc 03 77 52 bc 6d 70 28 bb
       -0.016474994 -0.022620976 -0.012845757 -0.0025701777
0001a0 df 86 68 3c 38 6b d3 bb 31 36 9d bb 90 33 54 bc
       0.014192312 -0.0064519905 -0.00479772 -0.012951747
0001b0 79 72 15 bc 33 51 30 bc ac 4a 33 3c d1 47 31 bc
       -0.009121531 -0.010761547 0.010943096 -0.010820345
0001c0 e5 5f c4 bb 99 74 0b bb 98 a5 29 bc 70 85 a1 bb
       -0.005992877 -0.0021279214 -0.010354422 -0.004929237
0001d0 b7 8d 5c bc cb d8 03 bc 4e 1a 02 bc 65 ca 96 bb
       -0.013461522 -0.008047293 -0.007940842 -0.004601764
0001e0 dd f9 e6 bb 95 fd aa 39 f6 ed 0b 3b bd 19 af bb
       -0.007048829 0.0003261386 0.0021351553 -0.0053436444
0001f0 86 68 6e bb 8f ab b0 bb 19 31 19 bc 2e 8e 9a 3b
       -0.0036378219 -0.005391545 -0.009350085 0.004716656
000200 a9 9e ce bb ef 29 c6 bb 68 e8 6e bb 69 ac 72 bb
       -0.006305535 -0.0060474793 -0.0036454443 -0.0037029034
000210 5c 9e df ba 42 c5 be 3b b6 84 cb bc 96 0e 18 bc
       -0.0017060745 0.005821855 -0.024843555 -0.009280821
000220 72 7e 90 3a 71 64 60 bb c7 9b ab bb 61 3e 24 3b
       0.0011024012 -0.0034239555 -0.005237076 0.0025061595
000230 ad a9 f2 39 f7 35 2f 3a 82 0f 69 bb bb e2 33 bb
       0.00046284255 0.00066837616 -0.0035562222 -0.0027448374
000240 62 52 17 bc 02 8f 4d 3a b5 97 c0 bb 31 60 1f 3c
       -0.00923595 0.0007841439 -0.00587746 0.009727524
000250 3f fa 01 bc 47 97 0e 3b 53 3a 53 3c 96 e5 f4 bc
       -0.0079331985 0.0021757649 0.012892324 -0.029894631
000260 16 9a 43 bc 17 a7 26 bc e2 61 b6 ba 24 41 4e bc
       -0.011938592 -0.010171673 -0.0013914669 -0.012588773
000270 bd 56 5e 3a dc 85 01 bb af 4d d1 bb 51 d3 0a bc
       0.0008481553 -0.0019763624 -0.0063874344 -0.008473233
000280 0c cd df 3a 73 ad a8 bb d2 01 81 3b 57 19 b5 bb
       0.0017074659 -0.00514763 0.0039369846 -0.0055267024
000290 e7 70 a4 3b e7 2a d9 bb 86 fc cf bc d4 13 74 ba
       0.005018342 -0.006627429 -0.025388967 -0.0009310816
0002a0 fd 6c 1f 3a 46 96 32 3b 3e 64 0d bc 61 2b c8 3a
       0.0006081609 0.0027250214 -0.008629857 0.0015271717
0002b0 23 f2 06 bc 2b 2e 9c bb e7 c5 28 3b 2c f8 cc bb
       -0.008236441 -0.004766246 0.0025752725 -0.0062551703
0002c0 76 85 47 bb 45 d5 dd bb 64 06 01 bc a4 b3 15 bc
       -0.003044454 -0.0067698085 -0.007875059 -0.009137068
0002d0 8c c6 d2 bb 15 e1 55 3b 97 21 ba bc e5 75 4f bc
       -0.00643236 0.003263538 -0.022721095 -0.012662386
0002e0 3e cb c4 bb dc 8b a2 bb ba 50 af ba a2 3e 80 bb
       -0.0060056737 -0.00496052 -0.0013375499 -0.0039137164
0002f0 c3 36 19 3b 4f b9 12 bc ed 57 2d 3c b1 a4 70 3b
       0.0023378588 -0.008955314 0.010580045 0.0036719257
000300 ec 60 30 3b c2 e5 d3 ba 28 e3 79 bb 83 ce ec 39
       0.0026913239 -0.0016166496 -0.003812978 0.0004516729
000310 ea 9e ae 3b e7 9b 2d 3b da cd aa bb 17 f8 28 bc
       0.0053290026 0.002649063 -0.0052125277 -0.0103130555
000320 70 b7 ea bb 0a 31 38 bc e1 00 7e bb 8d 39 1c bc
       -0.0071629807 -0.011242161 -0.0038757848 -0.009535206
000330 04 10 1a 3d 7c d4 b8 3b 50 84 9f bb 39 04 0b bc
       0.03761293 0.0056405645 -0.004868068 -0.0084848935
000340 4d 3d 0c 3c ab b5 fd 3b 37 2c ba bb cb 12 b7 bb
       0.008559537 0.007742604 -0.0056815404 -0.005586957
000350 33 fc 41 bb ed 48 6c 3b 92 1b 58 bc 9f 7a d2 bb
       -0.0029599785 0.003605421 -0.013190167 -0.006423309
000360 1e fa 26 3a 93 e7 df bb 66 a9 d6 ba cd d3 87 ba
       0.0006369668 -0.0068330257 -0.0016377389 -0.0010362804
000370 01 da 3c 39 38 02 92 bb 29 0b 63 bb 49 7d fd 39
       0.0001801029 -0.004455831 -0.0034644103 0.00048349265
000380 58 dc 9a bc c5 f3 d5 bb 4b 4b 8d 3c f8 20 fd 3b
       -0.018903896 -0.0065293037 0.017247817 0.0077248774
000390 fa 27 6d 3c 11 4f e8 3a 67 b8 2b bb b4 34 07 bc
       0.014474863 0.0017723759 -0.0026202442 -0.0082523115
0003a0 bc be 9e bb 59 fc f4 bb 12 6a 3c bc ba 36 8a 3b
       -0.0048445147 -0.0074763712 -0.0114998985 0.0042179497
0003b0 c5 db ba 3a 89 67 2c bc 74 ae 11 bb dd d1 1c bc
       0.001425617 -0.010522732 -0.0022229226 -0.00957152
0003c0 39 ba 93 bb d2 95 1c bc fa 6c df bb 6c ef 0a bc
       -0.0045082835 -0.009557204 -0.006818411 -0.008479934
0003d0 f5 28 6c bb a5 09 b1 3a 3e 5c 9d bb ba d3 1a bc
       -0.0036035154 0.0013506903 -0.004802256 -0.009449894
0003e0 a8 e7 c7 3b 84 29 d5 bb 53 54 3e bb 7a 19 3c bc
       0.0061006136 -0.006505193 -0.002904196 -0.011480683
0003f0 5d 8a c3 bb d0 6b 3f bc d1 ba 08 bc 80 6f d6 ba
       -0.005967422 -0.011683419 -0.008345322 -0.0016360134

arith.constant16 f4 [6]
000000 c8 5a 01 3f 3a 64 03 c0 c0 ff f4 3f 07 65 74 c0
       0.50529146 -2.0529923 1.9140549 -3.8186662
000010 1d 26 4f bf 9f bb d7 bf
       -0.8091753 -1.6854132

arith.constant17 f4 [128]
000000 22 37 0c 3c 18 35 91 3b 4f fb 38 bc 77 6b b2 bb
       0.008558067 0.004431378 -0.011290385 -0.0054449397
000010 7d bc 5c bc ba 2b ce 3a c1 33 51 3b a7 4c 17 ba
       -0.0134726735 0.0015729584 0.0031921717 -0.0005771615
000020 28 03 41 3b ef 11 c6 3b 50 65 0e bc 3d fb 3b 39
       0.0029451344 0.0060446183 -0.008691147 0.00017927303
000030 d9 5b 93 bc 58 3b 2d bc 38 42 d9 b8 84 ef 83 bc
       -0.017988132 -0.010573231 -0.000103597005 -0.01610542
000040 f5 e1 48 3c fc 2e 00 3c d6 ed 48 bc 16 48 50 bb
       0.012260904 0.007823702 -0.012263736 -0.0031781248
000050 5c f1 52 ba 75 94 54 bb 3c 73 1c bb 5d 4f 78 bc
       -0.00080468296 -0.003243712 -0.0023872396 -0.01515564
000060 e2 17 19 ba bc 3a 3c 3a 34 6d 94 3b bc f6 02 3c
       -0.00058400456 0.0007180383 0.0045296196 0.007993396
000070 3f 9c fc 3b a2 fa 79 bc 19 dd 15 bc 9d 6f 2d bc
       0.0077090557 -0.015257509 -0.009146952 -0.010585693
000080 c8 7d ec 3b 29 82 f8 bb 04 6a 9c bb 9d 18 30 3b
       0.0072171427 -0.0075838757 -0.0047733802 0.002687014
000090 d2 2f fb 3b c5 34 09 bc bd b1 85 3c 0f 37 d3 3b
       0.0076656127 -0.008374398 0.016320104 0.0064457725
0000a0 cc 44 8d bb 13 b6 b8 bb 4d 35 10 bc 10 60 7c 3c
       -0.0043111797 -0.0056369393 -0.00880177 0.015403762
0000b0 45 76 4d 3c 29 b4 c3 ba 42 5d 43 3c f7 e0 cf bb
       0.012540405 -0.0014931011 0.01192409 -0.0063439566
0000c0 9d 40 11 3c 5c ca 36 3c e6 82 13 bc 40 e2 1d 3c
       0.008865503 0.011156645 -0.009003377 0.009636462
0000d0 26 66 30 ba 56 ce e3 3b e3 d5 5a 3b e0 de df 3a
       -0.00067290885 0.0069520874 0.0033391647 0.0017079972
0000e0 c0 f5 96 3a 3c a1 a9 bc 1b 0c 7c bb 0f 9b 1e 3a
       0.0011517331 -0.020706765 -0.0038459364 0.0006050327
0000f0 d3 ef 8b bb 5a 8d b9 bb 30 14 cd bc a2 d0 14 bb
       -0.0042705326 -0.0056626024 -0.02503404 -0.0022707363
000100 ab 0c 2b 3c 11 10 e0 bb 77 0c 2e bc ef 7b 77 39
       0.010440032 -0.0068378528 -0.010623089 0.00023601924
000110 da 65 31 bb 91 3e b3 bb c4 0c 9d bb 08 1c 2c bc
       -0.0027068765 -0.005470105 -0.0047927815 -0.01050473
000120 6a db 06 3b ee 76 28 bb 2b 84 88 bb 5f 44 8a 3b
       0.0020577558 -0.0025705653 -0.0041661463 0.0042195763
000130 78 c6 60 bc 3a d3 02 3b f1 c6 ca 3b 17 f1 cf 3b
       -0.013719194 0.0019962327 0.0061882664 0.006345879
000140 63 da 3c 3c 0c 4a a9 b9 ed 93 8c bc ed 59 c8 ba
       0.011526677 -0.0003228936 -0.01716038 -0.0015285589
000150 87 73 7f 3b 74 d5 a2 bc cd 02 ca 3a 17 1d 09 3c
       0.0038978772 -0.019877173 0.0015412212 0.008368752
000160 1f 73 68 3b e4 c6 d6 bb a6 d5 f5 3b 59 36 c2 bb
       0.0035469008 -0.0065544713 0.0075022755 -0.005926889
000170 47 bc 9b bb 28 03 79 36 22 16 10 3c fc 83 fd 3b
       -0.004752669 3.7105729e-06 0.008794339 0.007736681
000180 0b 8f 83 bc b4 ac 41 bb 58 24 c3 3b bd 83 c6 bb
       -0.01605942 -0.0029552402 0.0059552602 -0.006058185
000190 68 ac 69 3a e5 d9 ab 3b 3d eb ca bb ee a1 23 3b
       0.0008913935 0.005244481 -0.0061925934 0.0024968344
0001a0 90 4d 4a 3c 5b ee 1d 3c 72 cf 43 bc 47 21 dd 3b
       0.012347594 0.009639348 -0.011951314 0.0067483517
0001b0 a7 85 b0 39 4d cb 67 3c a6 d9 7c 3c 20 30 27 bc
       0.00033668915 0.014147592 0.015432751 -0.010204345
0001c0 a9 37 2b bc 1e 07 f4 3b 2d 79 7c bc bd af 88 bb
       -0.010450282 0.0074471375 -0.01540975 -0.0041713403
0001d0 06 22 18 bc f0 b4 b1 b9 f2 63 23 3c ad c3 f9 bb
       -0.009285456 -0.0003389488 0.009972559 -0.0076222033
0001e0 d1 e6 3d bc 20 ac 9d 3b f2 9c 10 3c d5 ca 16 bb
       -0.011590675 0.0048117787 0.008826481 -0.002300908
0001f0 cf b8 bf b7 1e a6 99 bc b1 d4 9b 3c 1d a6 e7 bb
       -2.2855033e-05 -0.018755969 0.019022318 -0.007069363

arith.constant18 f4 [128]
000000 e2 8d 96 bc 02 86 aa bb 33 62 67 ba 82 45 32 bc
       -0.018378202 -0.0052039633 -0.00088265835 -0.01088083
000010 6e 7e b7 bc 14 00 57 bc 7e de 3e bc 13 3f 99 bc
       -0.022399154 -0.013122577 -0.011649726 -0.018706834
000020 3c b9 a1 bb b5 a1 10 bd 47 8f 30 bc 3d bf 89 3b
       -0.0049354117 -0.035310466 -0.0107763475 0.0042037056
000030 55 90 4d bb 03 82 6a ba bc da cd bc 97 2b 76 bb
       -0.0031366546 -0.0008945765 -0.025128715 -0.0037562603
000040 ec 94 b2 3b 5c e0 06 bc 57 f4 12 bc cc 26 30 bc
       0.005449882 -0.008232202 -0.008969388 -0.010751437
000050 75 af 38 bc 29 27 45 bb ad 7b 0a bc 52 a3 83 bc
       -0.011272301 -0.0030083156 -0.008452338 -0.016069088
000060 c7 5c a5 bc e3 53 37 bc cc e8 50 bd 43 d8 bb bc
       -0.020185841 -0.011189434 -0.051003262 -0.02293027
000070 28 dd e8 38 4f 27 29 bc 1f 0c 36 bc e9 87 dd bc
       0.000111038156 -0.010324313 -0.011111288 -0.027042346
000080 8a ed de bc 6b 0c 97 bb 3a 47 13 bd 50 17 1f bc
       -0.027212877 -0.0046096346 -0.0359566 -0.009710148
000090 59 f8 a7 bc b6 a1 f9 bb b3 5b 81 bb cf 6c a3 bb
       -0.020504164 -0.0076181544 -0.003947699 -0.004987336
0000a0 40 21 20 bc 3a 0b dc bc 2c cb 33 bc ea 08 70 bc
       -0.009773552 -0.026860822 -0.010973733 -0.014650563
0000b0 54 c7 d0 ba f9 0f 53 bc 53 95 4d bc f0 05 d8 bc
       -0.0015928545 -0.012882226 -0.012547809 -0.026370019
0000c0 e3 6d 18 bc 0a e1 57 bc 9f f1 6a bc b7 22 da bb
       -0.009303543 -0.013176212 -0.0143398335 -0.0066569704
0000d0 8a 57 91 3b 63 df 3f bc 66 99 67 3a b6 72 93 bc
       0.0044354843 -0.011710974 0.0008834809 -0.017999034
0000e0 1f 6e 25 bc 11 fb 5c bc 33 59 82 3b c2 c4 d4 bc
       -0.010097056 -0.013487593 0.0039779185 -0.025972728
0000f0 05 f1 53 bc d9 a6 e0 bc 6c cf 6b bc 4f 65 8a bc
       -0.0129358815 -0.02742331 -0.014392715 -0.01689401
000100 a0 ef 4a bc 6c ef c9 bc c2 86 72 bc e3 52 e4 bc
       -0.012386233 -0.024650298 -0.014802637 -0.027871555
000110 8e 38 0c bc a8 28 a0 bc 3e a2 b3 bc df 8a 41 bb
       -0.008558406 -0.019550636 -0.021927949 -0.0029532237
000120 93 f4 32 bc 34 60 07 bc 2a 4a ba bb 6f 8a 9f bb
       -0.010922569 -0.008262683 -0.0056851106 -0.0048687975
000130 58 e5 4e bc c0 ea 4b bc 9e 5e 98 bc 2b 36 0a bd
       -0.012627922 -0.0124461055 -0.018599804 -0.033743065
000140 29 34 36 bb 45 20 87 bb c6 d7 17 bc e8 92 e2 bb
       -0.0027802086 -0.00412372 -0.009267753 -0.0069144852
000150 72 8c b0 bc d9 02 87 bc 43 b9 8d 3b e9 8e 04 bb
       -0.021551345 -0.01648085 0.0043250634 -0.0020226783
000160 64 59 02 bc 83 b0 21 3b cc 21 04 bc e9 65 69 bc
       -0.007955883 0.002467186 -0.008064698 -0.014245489
000170 2f 10 3d bb 02 13 aa bc b6 83 e4 bb 55 6d fc bb
       -0.0028848758 -0.020761017 -0.006973709 -0.007703463
000180 11 2b 01 bd 79 2c e1 bb a4 44 88 bc e9 d4 6f bc
       -0.031535212 -0.0068717566 -0.016634293 -0.014638164
000190 89 74 5e bc dd 61 06 ba d6 94 01 bc 92 eb a9 bc
       -0.013577589 -0.0005126277 -0.00790902 -0.020742211
0001a0 4e 34 03 bc be 64 a0 3a 52 88 51 bc 7b 84 99 bc
       -0.008008076 0.0012237055 -0.012788849 -0.01873993
0001b0 0a 3f b7 bc fd 19 39 bc 42 1e cc bc 17 eb fb bb
       -0.022368927 -0.0112977 -0.024916772 -0.007687937
0001c0 30 79 1e bd ff 42 da bc 18 0d 11 bb db 31 ac bb
       -0.038689792 -0.026643274 -0.0022133049 -0.0052549667
0001d0 81 6b 34 3b a2 81 e9 bc 43 2c 22 bc 85 f1 80 bc
       0.0027529898 -0.028504197 -0.009898248 -0.015740165
0001e0 5c d1 c0 bc 00 bf a1 b9 d0 0b 0a bd 85 a3 dd bc
       -0.02353733 -0.0003085062 -0.03370267 -0.027055511
0001f0 02 41 1b bc 2d 92 8a bc 73 0c 3d bc 36 ea a8 ba
       -0.009475948 -0.016915405 -0.011538613 -0.0012887183

arith.constant19 f4 [64]
000000 56 f0 8d bb 40 2c 5f 3b 93 19 81 bb b5 3e 2d bb
       -0.004331629 0.0034053475 -0.0039398163 -0.0026435081
000010 25 e7 a4 bb dd ba 4f bb 6a 27 02 bb ba c9 33 bb
       -0.0050324374 -0.0031697073 -0.0019859918 -0.002743347
000020 82 15 58 ba 74 dd b2 3c 64 45 23 bd 34 7b e2 bc
       -0.0008242951 0.021834113 -0.039861098 -0.027646638
000030 2c 7a 3f bc 21 3d d8 bb 6d e3 16 bc ea fe ce bc
       -0.011686843 -0.006599084 -0.009209496 -0.025268037
000040 48 29 cd ba db 77 51 bc 21 50 23 bc e9 73 9a 39
       -0.0015652562 -0.012784923 -0.009967835 0.0002945953
000050 8b 76 0e bb 09 3b 04 bd fe 71 66 bc f3 7a 42 bc
       -0.0021738138 -0.032282863 -0.014065264 -0.011870134
000060 28 d5 d5 3a 49 10 ed bc 9d 18 9c 3b d7 12 d0 3a
       0.0016314136 -0.02893843 0.0047636763 0.0015874755
000070 bd fc d1 3b 1e fd ab bc d7 67 b9 bb 4f d4 35 bc
       0.0064083026 -0.02099472 -0.0056581306 -0.011097982
000080 fa 16 d3 bb 5c f7 ea 3b 1c 5a ec ba 77 92 db bc
       -0.006441948 0.007170601 -0.0018032226 -0.026803238
000090 82 e5 73 bc 15 9a 30 bc 4b f6 98 bc 98 e6 9f 3b
       -0.014886262 -0.0107789235 -0.01867213 0.004879784
0000a0 df 83 00 bd 66 8b 6c bc 39 1e 7b ba bc 2f 89 bb
       -0.031375762 -0.014437532 -0.00095793937 -0.0041865986
0000b0 7f e8 b0 3b e1 f8 a2 bc 65 b0 93 3b a9 8d d0 bc
       0.0053988094 -0.019894065 0.004507112 -0.025458174
0000c0 f3 32 9e bc 93 5c 88 3b 83 ce af bc 99 3f 7f bc
       -0.019311404 0.0041614263 -0.021460777 -0.015579128
0000d0 b9 3a 2b bc 6f f0 08 bd 24 3a 20 bc dd 5e b8 3b
       -0.010451012 -0.03343242 -0.009779487 0.005626543
0000e0 c0 09 03 bd 12 83 59 3c 66 67 af ba f6 e2 9f bc
       -0.03199172 0.0132758785 -0.0013382256 -0.019517403
0000f0 d8 4d 20 3c 3d 62 88 bc 59 5c b1 bb a7 d6 da ba
       0.009784184 -0.016648406 -0.00541262 -0.0016696051

arith.constant20 f4 [64]
000000 e6 fb 98 3b 26 0a 05 bc ab 1f a0 bb 4e 40 8b bc
       0.0046687005 -0.008120095 -0.0048865876 -0.016998436
000010 ed a4 55 bc c4 cc 20 bc 15 22 d2 bb 24 31 75 b8
       -0.01303981 -0.009814445 -0.0064127543 -5.8458318e-05
000020 fa 45 b0 bc 3b 09 44 ba 9f e8 ea 3a ea d5 dc ba
       -0.021517742 -0.0007478182 0.001792211 -0.0016848419
000030 aa 0e 34 bc cf c9 fd 3b c5 59 41 bc f3 53 b0 bb
       -0.010989824 0.0077450047 -0.011801188 -0.0053811013
000040 16 ef bc 3b 22 9a 80 3b a7 39 3b bc d5 10 19 bd
       0.005765806 0.003924624 -0.01142732 -0.037369568
000050 dd a5 49 bc 71 ab 3a bc ab 1b 56 bc e2 37 80 bc
       -0.012307611 -0.011393414 -0.01306812 -0.015651647
000060 b2 cf 7e bc 18 25 22 bc 21 52 f0 ba 58 cc a9 ba
       -0.015552448 -0.009896539 -0.0018335023 -0.0012954576
000070 98 f3 bd bb 06 f9 41 bc 63 b2 87 bc e1 b4 9e bc
       -0.005796861 -0.011839157 -0.016564554 -0.01937336
000080 2f 13 88 bc 37 fc 7e bc f8 62 89 3b 72 d8 16 bc
       -0.01661071 -0.015563062 0.004192706 -0.009206878
000090 5f 8a 19 bc f7 5b e6 bb 40 80 ad 3b f0 20 51 3a
       -0.009371369 -0.007030006 0.0052948296 0.00079776254
0000a0 29 a9 b4 3b 1c 2d e0 3b c3 50 1c bc 1b 0a 8f bb
       0.0055133295 0.006841315 -0.0095407395 -0.0043652183
0000b0 8e 16 c9 bc 53 97 bf bb 73 97 10 bc f4 c3 32 bc
       -0.024546888 -0.0058468967 -0.008825171 -0.010910977
0000c0 b0 04 3c bb 6a 3d 55 3b d2 17 cf ba a4 f8 58 bc
       -0.0028689317 0.0032537826 -0.0015799946 -0.013242874
0000d0 1a ce 5e bc e5 e8 41 ba 69 de 2e bc 03 5f 65 3b
       -0.013598943 -0.000739707 -0.010673144 0.0034999258
0000e0 46 61 22 bb 80 48 e2 bb 0c 57 c6 bc 6d 3a 0b 3c
       -0.0024777218 -0.0069056153 -0.024211429 0.0084978165
0000f0 f2 63 62 bc e0 e5 16 bc f3 8f 81 bc 7e c5 f3 bb
       -0.013817774 -0.00921008 -0.01581571 -0.0074393144
