assets/models/tomato_disease_model_quant.tflite (tflite, 385320 bytes, 28 tensors)

arith.constant f4 [32]
0.012641131 0.005400804 -0.0021312106 0.0049552876 -0.0023606606 -0.027393753 0.019097475 -0.002702432
0.0044444767 -0.0024865484 -0.0030866098 -0.03038012 -0.023444138 -0.0004552865 0.0012121173 -0.0063899504
0.004143465 -0.011026127 -0.006904753 0.007251511 -0.02273288 0.0029247773 0.0008102842 -0.0013707323
0.017147217 0.0036721241 0.006905297 0.004237616 0.009818941 0.009512486 -0.0011705132 0.00628246
00000000: bf1c 4f3c 3af9 b03b c8ab 0bbb f75f a23b
00000010: 50b5 1abb dd68 e0bc 4f72 9c3c 491b 31bb
00000020: f9a2 913b 5cf5 22bb b848 4abb bbdf f8bc
00000030: ec0d c0bc 85b3 eeb9 e8df 9e3a ca62 d1bb
00000040: e7c5 873b eea6 34bc 4441 e2bb 159e ed3b
00000050: 4e3a babc 9fad 3f3b 4169 543a 25aa b3ba
00000060: 5278 8c3c 05a8 703b d445 e23b b3db 8a3b
00000070: a0df 203c 42da 1b3c e86b 99ba 18dd cd3b

arith.constant1 f4 [32, 3, 3, 3]
0.012138913 0.13686562 -0.111597784 0.11752133 -0.05606406 0.1085267 0.036304943 -0.11523099
0.05696701 -0.031842224 -0.0050485698 -0.11087741 -0.13909237 0.14129737 -0.019374987 0.043641612
0.07086431 -0.08385709 -0.008826195 0.133507 0.097287826 -0.06342005 0.045111176 -0.019693192
-0.03500515 -0.020497892 0.0358048 0.12659001 -0.004493344 -0.032418054 -0.13862722 0.06487632
-0.00061687984 -0.07081752 0.09084229 -0.06870787 -0.070317045 -0.021112727 0.014228798 0.050621092
0.013711514 0.09341872 -0.13915497 0.051816422 0.08585311 -0.005585069 0.052425075 -0.08532182
-0.12053154 0.12938242 -0.09108181 -0.0046191323 0.0062230784 0.054139726 -0.07925174 0.091107294
-0.03945583 -0.041145317 0.081124805 0.14243181 0.09128514 0.025572842 0.09626428 -0.0844809
0.012743628 -0.07989721 -0.05162136 0.12810177 -0.0100538405 -0.13104984 0.023750555 0.08296122
0.046451986 -0.043120474 0.06084862 -0.03326519 -0.018687742 -0.13832675 -0.0029708736 -0.08753713
-0.13020802 0.07940666 -0.08026881 -0.040992532 0.01803234 0.00913714 0.08886612 0.12764087
-0.11594476 -0.06330344 0.106270775 0.058703486 -0.1297318 -0.047407802 -0.014433775 0.069578834
0.027308134 0.12075771 -0.11572345 0.07613969 0.042250063 -0.05287883 0.04301676 -0.09663211
0.05633066 0.040776428 -0.0669166 0.107755184 -0.0032270502 0.08361553 0.0017633043 -0.09271998
-0.118406355 -0.07991253 -0.06822079 0.033821806 0.04402929 -0.08903514 -0.049268164 -0.049486235
0.084922895 -0.10809472 -0.08046467 0.13020201 0.103915714 0.14464281 -0.034212545 -0.06705832
-0.04616878 0.067993045 -0.060201284 -0.084908314 -0.08176807 -0.082055874 0.10563391 0.041673087
-0.09207771 -0.06523481 -0.05071017 0.071401276 0.03483449 0.029957013 0.10156328 -0.008238628
0.0744448 0.036503572 -0.07357207 0.024674015 0.03227306 0.11297462 -0.026055036 0.030865265
0.11822358 0.095711246 -0.061869647 -0.094201066 0.114832945 0.053369064 0.077050254 0.10430304
-0.0937301 0.060757276 -0.012334035 -0.0007684537 0.07621683 -0.014708445 -0.051458467 -0.036669336
0.14174518 -0.053315405 0.06900594 -0.09807151 0.1296823 -0.09753159 0.12725466 -0.09352948
-0.06356322 -0.020007575 -0.1222636 -0.008706798 -0.0368051 -0.018675579 0.02352374 -0.0836277
-0.124438055 0.087546885 0.055544 0.08923409 -0.0919607 -0.042896427 -0.054343726 0.10387385
0.11329059 0.046548784 0.068847634 0.05929086 0.06062741 0.07693965 0.07381612 -0.12344342
0.120250575 -0.062117312 0.10446992 0.023896262 -0.07554769 0.11734368 -0.039250243 -0.029102623
-0.11997964 -0.13307488 -0.045338284 -0.06000698 0.0068425494 -0.025419813 -0.12570696 -0.091545
0.11397913 0.053604968 -0.06526273 0.10802165 -0.09268098 -0.10986352 0.07356571 -0.1101364
-0.1373208 -0.10349799 0.001898243 0.048018105 -0.03336041 0.114919536 0.073103055 -0.0797029
0.11891454 0.13135292 0.116133586 0.029325107 -0.12406786 0.03479087 0.018101174 -0.11775763
-0.0478591 0.11010205 -0.11029131 0.11917047 0.06648205 -0.07941442 -0.12378074 -0.0468472
0.093960255 -0.02224198 -0.12988408 0.09034821 0.0074998047 -0.034826424 0.08804726 -0.03379806
00000000: 4be2 463c 8026 0c3e 618d e4bd 06af f03d
00000010: 6ea3 65bd 3f43 de3d 7eb4 143d 3afe ebbd
00000020: 3d56 693d fe6c 02bd 796e a5bb b213 e3bd
00000030: 3b6e 0ebe 42b0 103e 4bb8 9ebc 8cc1 323d
00000040: 4f21 913d 44bd abbd bf9b 10bc 0fb6 083e
00000050: d73e c73d 5fe2 81bd 7fc6 383d 9e53 a1bc
00000060: 8f61 0fbd 32eb a7bc 0ea8 123d d0a0 013e
00000070: e73c 93bb cbc8 04bd 4bf4 0dbe e0dd 843d
00000080: 1bb6 21ba c708 91bd 860b ba3d b6b6 8cbd
00000090: 6202 90bd 99f4 acbc e81f 693c 1058 4f3d
000000a0: 42a6 603c 5052 bf3d a47e 0ebe 753d 543d
000000b0: c1d3 af3d f402 b7bb adbb 563d 35bd aebd
000000c0: 3dd9 f6bd d37c 043e 1a89 babd 175c 97bb
000000d0: f7ea cb3b 9ec1 5d3d bc4e a2bd 7696 ba3d
000000e0: 709c 21bd fe87 28bd c324 a63d a5d9 113e
000000f0: b4f3 ba3d 237e d13c 3526 c53d 5204 adbd
00000100: a6ca 503c 26a1 a3bd eb70 53bd 1c2d 033e
00000110: ddb8 24bc ee31 06be 8690 c23c 92e7 a93d
00000120: 7044 3e3d 189f 30bd 673c 793d 1441 08bd
00000130: 0917 99bc 87a5 0dbe fdb2 42bb ab46 b3bd
00000140: 4055 05be f59f a23d f963 a4bd c9e7 27bd
00000150: 8fb8 933c f1b3 153c 71ff b53d 4ab4 023e
00000160: 7274 edbd 3ca5 81bd 7ea4 d93d 1173 703d
00000170: 6ad8 04be af2e 42bd a47b 6cbc 597f 8e3d
00000180: 4fb5 df3c d14f f73d 6b00 edbd 20ef 9b3d
00000190: 670e 2d3d 7997 58bd 5832 303d 0ee7 c5bd
000001a0: faba 663d 2f05 273d 920b 89bd c0ae dc3d
000001b0: eb7c 53bb 9e3e ab3d ad1e e73a f9e3 bdbd
000001c0: 087f f2bd 2ea9 a3bd 57b7 8bbd bc88 0a3d
000001d0: 0f58 343d 0e58 b6bd 6acd 49bd 14b2 4abd
000001e0: 0eec ad3d c460 ddbd a9ca a4bd ad53 053e
000001f0: c3d1 d43d 3f1d 143e 7422 0cbd df55 89bd
00000200: 7a1b 3dbd f03f 8b3d 9f95 76bd 69e4 adbd
00000210: 0576 a7bd e90c a8bd 9756 d83d 66b1 2a3d
00000220: 3d93 bcbd d499 85bd 78b5 4fbd d53a 923d
00000230: 9cae 0e3d 6968 f53c 6900 d03d 4ffb 06bc
00000240: 8476 983d c584 153d f4ac 96bd 2921 ca3c
00000250: c230 043d 3d5f e73d 5f71 d5bc 27d9 fc3c
00000260: 341f f23d 4204 c43d 076b 7dbd 7dec c0bd
00000270: 892d eb3d 8599 5a3d 86cc 9d3d d59c d53d
00000280: 91f5 bfbd 9fdc 783d b114 4abc 0e72 49ba
00000290: 9217 9c3d b1fb 70bc 1dc6 52bd 9632 16bd
000002a0: a625 113e 4161 5abd fc52 8d3d b7d9 c8bd
000002b0: 70cb 043e a4be c7bd 0c4f 023e 628c bfbd
000002c0: 6f2d 82bd ede6 a3bc 5765 fabd f5a6 0ebc
000002d0: f2c0 16bd 87fd 98bc dcb4 c03c 0045 abbd
000002e0: 61d9 febd c84b b33d 1b82 633d 5dc0 b63d
000002f0: e455 bcbd 2ab4 2fbd 8797 5ebd d0bb d43d
00000300: e604 e83d f0a9 3e3d fdff 8c3d f9da 723d
00000310: 7254 783d 8992 9d3d e82c 973d e7cf fcbd
00000320: ef45 f63d b96e 7ebd 53f4 d53d 18c2 c33c
00000330: bfb8 9abd e251 f03d ddc4 20bd a068 eebc
00000340: e3b7 f5bd c844 08be a3b4 39bd e1c9 75bd
00000350: 7737 e03b 363d d0bc 53b9 00be f27b bbbd
00000360: e46d e93d e290 5b3d 77a8 85bd 743a dd3d
00000370: 87cf bdbd 2000 e1bd 9ea9 963d 318f e1bd
00000380: d39d 0cbe c1f6 d3bd 77ce f83a a2ae 443d
00000390: eda4 08bd ef5a eb3d 0eb7 953d 463b a3bd
000003a0: 7789 f33d 6181 063e 72d7 ed3d 353b f03c
000003b0: 4a17 febd df80 0e3d ea48 943c ea2a f1bd
000003c0: e707 44bd 2f7d e13d 69e0 e1bd a60f f43d
000003d0: be27 883d 07a4 a2bd c280 fdbd d9e2 3fbd
000003e0: 3c6e c03d d034 b6bc 5500 05be 7b08 b93d
000003f0: ecc0 f53b 27a6 0ebd 1f52 b43d d66f 0abd

arith.constant2 f4 [64]
-0.58642846 -0.5349584 -0.61528206 -0.59910697 -0.59561884 -0.86707246 -0.7354499 -0.3734068
-0.54051596 -0.57573926 -0.76298296 -0.7949917 -0.5539822 -0.52469313 -0.6671277 -0.7312291
-0.5713262 -0.5654368 -0.6512513 -0.54181796 -0.60243815 -0.66387993 -0.8200555 -0.46570873
-0.65143895 -0.57070374 -0.66797733 -0.5256094 -0.3722075 -0.82188857 -0.49087286 -0.47913677
-0.37964147 -0.7101793 -0.7215066 -0.47580025 -0.83486503 -0.6277828 -0.68402267 -0.80333495
-0.49462503 -0.64800686 -0.73787445 -0.72875834 -0.50229925 -0.54890895 -0.6835045 -0.6013531
-0.66996604 -0.87763816 -0.44384348 -0.8056406 -0.63411826 -0.71071595 -0.64944595 -0.60082847
-0.77155966 -0.6646619 -0.46713394 -0.49284664 -0.7533576 -0.4872451 -0.62945753 -0.59388363
00000000: 2d20 16bf 09f3 08bf 2083 1dbf 135f 19bf
00000010: 7a7a 18bf 76f8 5dbf 7246 3cbf 2d2f bfbe
00000020: 415f 0abf a663 13bf da52 43bf 9384 4bbf
00000030: c7d1 0dbf 4a52 06bf e2c8 2abf d531 3bbf
00000040: 6f42 12bf 77c0 10bf 68b8 26bf 95b4 0abf
00000050: 6339 1abf 09f4 29bf 28ef 51bf 6071 eebe
00000060: b4c4 26bf a419 12bf 9000 2bbf 568e 06bf
00000070: fb91 bebe 4a67 52bf b053 fbbe 6a51 f5be
00000080: 5e60 c2be 50ce 35bf a8b4 38bf 179c f3be
00000090: b7b9 55bf 60b6 20bf 1c1c 2fbf 5ca7 4dbf
000000a0: 7e3f fdbe c7e3 25bf 57e5 3cbf e88f 3abf
000000b0: af96 00bf 4c85 0cbf 27fa 2ebf 47f2 19bf
000000c0: e582 2bbf e5ac 60bf 743f e3be 763e 4ebf
000000d0: 9355 22bf 7bf1 35bf 1742 26bf e5cf 19bf
000000e0: ef84 45bf 4827 2abf 2e2c efbe 6556 fcbe
000000f0: 0bdc 40bf 3178 f9be 2124 21bf c208 18bf

arith.constant3 f4 [64]
1.4934374 1.4994571 1.115379 1.3158549 1.4349693 1.0953814 1.1470655 1.7377315
1.5567225 1.2329005 1.0814387 0.8352519 1.6359919 1.9754702 1.3286455 1.4302728
1.3801036 1.6512158 1.4747355 2.111386 1.7685213 1.6713687 1.139946 1.4393668
1.4354833 0.79325044 0.7177541 1.5221043 2.437865 0.8377193 1.6306536 1.9973336
4.2288747 0.9861801 1.1204349 1.057136 1.107723 1.4186416 0.99664617 1.0876708
1.8010212 1.1773496 1.4923474 1.460663 2.1471543 1.8577543 1.0714338 1.6524109
0.73779774 1.1612964 2.4933014 0.9727924 1.1019847 1.4134898 1.0601426 1.9355813
1.3034711 1.2133405 2.138054 1.7641737 1.2254454 2.4954395 1.584458 1.3704104
00000000: f528 bf3f 36ee bf3f bdc4 8e3f ef6d a83f
00000010: 13ad b73f 7535 8c3f 0bd3 923f fc6d de3f
00000020: af42 c73f afcf 9d3f 956c 8a3f 12d3 553f
00000030: 2f68 d13f 35dc fc3f 0e11 aa3f 2e13 b73f
00000040: 3ca7 b03f 0a5b d33f 22c4 bc3f f320 0740
00000050: e85e e23f 69ef d53f c0e9 913f 2c3d b83f
00000060: ebbd b73f 7612 4b3f bcbe 373f 50d4 c23f
00000070: fb05 1c40 c674 563f 42b9 d03f a1a8 ff3f
00000080: f152 8740 4d76 7c3f 696a 8f3f 3c50 873f
00000090: dec9 8d3f 0c96 b53f 3424 7f3f cc38 8b3f
000000a0: dd87 e63f 64b3 963f 3d05 bf3f 01f7 ba3f
000000b0: fa6a 0940 e5ca ed3f be24 893f 3382 d33f
000000c0: 50e0 3c3f 5ca5 943f 4092 1f40 ec08 793f
000000d0: d60d 8d3f 3ced b43f c1b2 873f 21c1 f73f
000000e0: 24d8 a63f be4e 9b3f e0d5 0840 72d0 e13f
000000f0: 65db 9c3f 48b5 1f40 85cf ca3f 9c69 af3f

arith.constant4 f4 [32]
-0.5375462 -0.6993014 -0.7365992 -0.40864587 -0.5962685 -0.7549839 -0.72331023 -0.609418
-0.6490338 -0.640281 -0.88017917 -0.52858883 -0.7620486 -0.603213 -0.7156994 -0.60377663
-0.85761696 -0.74237967 -0.52024543 -0.53035796 -0.5937993 -0.7648187 -0.68953377 -0.6810643
-0.80955034 -0.6451263 -0.594739 -0.6094479 -0.6904379 -0.72948897 -0.6784669 -0.5388462
00000000: a19c 09bf 6b05 33bf c491 3cbf 083a d1be
00000010: 0da5 18bf a046 41bf dc2a 39bf d102 1cbf
00000020: 1427 26bf 75e9 23bf 6c53 61bf 9951 07bf
00000030: 9e15 43bf 2b6c 1abf 1338 37bf 1b91 1abf
00000040: c98c 5bbf 980c 3ebf ce2e 05bf 8ac5 07bf
00000050: 3b03 18bf 29cb 43bf 4985 30bf 3b5a 2ebf
00000060: b13e 4fbf ff26 25bf d140 18bf c704 1cbf
00000070: 8ac0 30bf cabf 3abf 02b0 2dbf d3f1 09bf

arith.constant5 f4 [32]
3.8443763 2.5065882 1.6676592 3.0960953 2.3294644 3.6832108 3.5279427 3.33975
1.3677268 3.5693276 4.2327924 4.777521 4.735192 2.1005697 6.6059694 2.6530783
5.319443 2.8440676 3.819155 2.0151238 3.2348638 0.93555313 1.484552 5.1955657
5.705535 2.293478 3.9183388 5.5291896 2.806965 2.1652405 3.4004016 2.4569585
00000000: 430a 7640 f16b 2040 db75 d53f 6d26 4640
00000010: f215 1540 bab9 6b40 d0c9 6140 77be 5540
00000020: ac11 af3f dd6f 6440 0973 8740 74e1 9840
00000030: b186 9740 bc6f 0640 1a64 d340 09cc 2940
00000040: e138 aa40 3405 3640 096d 7440 caf7 0040
00000050: 0208 4f40 6980 6f3f cd05 be3f 1342 a640
00000060: be93 b640 58c8 1240 10c6 7a40 1fef b040
00000070: 51a5 3340 4d93 0a40 2ea0 5940 cf3e 1d40

arith.constant6 f4 [32]
-2.3545356 -0.35430947 -0.10509858 -1.942324 -0.011925683 -2.1221695 -0.032386735 -0.14945829
-0.73452485 -0.017240845 0.00022638962 -1.7391765 -0.8752724 -0.03326379 -1.8709737 -0.010123893
-0.026804173 -0.0645736 -2.1223128 -1.7773874 -1.8293493 -0.19448075 -2.2676141 0.0028934628
-0.028326426 -1.9931642 -1.1124166 -0.8347849 -0.50043523 -1.1671607 -0.045765877 -0.20293532
00000000: b6b0 16c0 0d68 b5be ed3d d7bd 139e f8bf
00000010: f163 43bc a0d1 07c0 f4a7 04bd 980b 19be
00000020: d209 3cbf ac3c 8dbc 0063 6d39 569d debf
00000030: da11 60bf 9d3f 08bd 117c efbf afde 25bc
00000040: 6d94 dbbc 2a3f 84bd f9d3 07c0 6e81 e3bf
00000050: 1e28 eabf f625 47be 9720 11c0 40a0 3d3b
00000060: d20c e8bc 0120 ffbf ab63 8ebf 77b4 55bf
00000070: 861c 00bf 8665 95bf 0075 3bbd 47ce 4fbe

arith.constant7 f4 [32]
20.455626 27.941238 29.71477 16.822313 32.69739 8.111523 32.79946 24.602438
21.17411 32.25335 31.679468 17.575687 23.423729 32.081562 14.28102 31.52997
31.68831 31.013596 6.807081 16.62678 9.7416935 28.394325 7.4721155 32.508156
31.155355 12.912313 21.853415 25.212112 28.064892 21.333681 31.77162 30.453215
00000000: 1fa5 a341 a887 df41 d9b7 ed41 1994 8641
00000010: 21ca 0242 ccc8 0141 a632 0342 cbd1 c441
00000020: 9464 a941 6e03 0142 8d6f fd41 029b 8c41
00000030: cc63 bb41 8553 0042 0f7f 6441 613d fc41
00000040: a981 fd41 d81b f841 9cd3 d940 a503 8541
00000050: fadd 1b41 9427 e341 921b ef40 5a08 0242
00000060: 2b3e f941 d698 4e41 cbd3 ae41 68b2 c941
00000070: e684 e041 61ab aa41 472c fe41 2fa0 f341

arith.constant8 f4 [128]
-0.519159 -0.7328587 -0.59864235 -0.5139334 -0.6663331 -0.62937444 -0.5752682 -0.6463509
-0.6794571 -0.7070397 -0.66596895 -0.74772215 -0.6020434 -0.64080846 -0.69992036 -0.69497204
-0.5954498 -0.5729117 -0.73194355 -0.64646393 -0.6840458 -0.60720766 -0.6739966 -0.6354801
-0.5744992 -0.54651743 -0.6623292 -0.70608467 -0.63823277 -0.6198514 -0.65946126 -0.5398395
-0.6193466 -0.73662645 -0.7562474 -0.52740693 -0.76721764 -0.6001612 -0.6489491 -0.6616699
-0.5723797 -0.6771624 -0.65814507 -0.7180738 -0.69748527 -0.6140078 -0.5873376 -0.5495273
-0.73997366 -0.59266603 -0.5913436 -0.75443447 -0.55617917 -0.749154 -0.6441146 -0.516115
-0.49675947 -0.6903046 -0.63048625 -0.7011709 -0.75728077 -0.6558617 -0.6458894 -0.5963629
-0.59422165 -0.6105111 -0.6998918 -0.6277982 -0.6014323 -0.7144875 -0.5766144 -0.59052926
-0.49502748 -0.545046 -0.5442729 -0.648935 -0.6607682 -0.55037254 -0.6124911 -0.60094416
-0.65891254 -0.5794009 -0.6169862 -0.74593204 -0.7104002 -0.551296 -0.6036334 -0.5433994
-0.77032983 -0.69300324 -0.5968122 -0.6247174 -0.7152667 -0.6528383 -0.72690606 -0.59770465
-0.78458685 -0.5952416 -0.81679803 -0.6606855 -0.6920081 -0.576395 -0.63516694 -0.6857598
-0.61502874 -0.5732804 -0.7994632 -0.62076217 -0.6875625 -0.6975642 -0.5605374 -0.65291524
-0.6178916 -0.55963105 -0.7363694 -0.61798537 -0.64119154 -0.6124731 -0.59753215 -0.6215553
-0.61740816 -0.76378775 -0.6550196 -0.6507383 -0.72131526 -0.53749496 -0.5580383 -0.53956175
00000000: 9be7 04bf a19c 3bbf a040 19bf 2491 03bf
00000010: ce94 2abf af1e 21bf c744 13bf 4177 25bf
00000020: e7f0 2dbf 8e00 35bf f17c 2abf b86a 3fbf
00000030: 841f 1abf 060c 24bf fb2d 33bf b0e9 31bf
00000040: 666f 18bf 57aa 12bf a760 3bbf a97e 25bf
00000050: a01d 2fbf f671 1bbf 0b8b 2cbf d3ae 22bf
00000060: 6112 13bf 91e8 0bbf 688e 29bf f7c1 34bf
00000070: 3963 23bf 95ae 1ebf 74d2 28bf ec32 0abf
00000080: 808d 1ebf 8d93 3cbf 6e99 41bf 2404 07bf
00000090: 6068 44bf 2aa4 19bf 8721 26bf 3363 29bf
000000a0: 7a87 12bf 845a 2dbf 327c 28bf afd3 37bf
000000b0: 658e 32bf 9d2f 1dbf c25b 16bf d2ad 0cbf
000000c0: ea6e 3dbf f6b8 17bf 4b62 17bf 9e22 41bf
000000d0: c261 0ebf 8ec8 3fbf b2e4 24bf 1d20 04bf
000000e0: 4257 febe cdb7 30bf 8c67 21bf f07f 33bf
000000f0: 27dd 41bf 8de6 27bf 0259 25bf 3dab 18bf
00000100: e91e 18bf 754a 1cbf 1c2c 33bf 62b7 20bf
00000110: 78f7 19bf a7e8 36bf 009d 13bf ed2c 17bf
00000120: 3e74 fdbe 2288 0bbf 7855 0bbf 9b20 26bf
00000130: 1b28 29bf 37e5 0cbf 37cc 1cbf 7ad7 19bf
00000140: 7eae 28bf 9e53 14bf cff2 1dbf 67f5 3ebf
00000150: cadc 35bf bc21 0dbf b887 1abf 391c 0bbf
00000160: 5634 45bf a968 31bf afc8 18bf 7bed 1fbf
00000170: b81b 37bf 6920 27bf 8416 3abf 2c03 19bf
00000180: afda 48bf c161 18bf ad19 51bf af22 29bf
00000190: 7127 31bf 9f8e 13bf 4d9a 22bf f48d 2fbf
000001a0: 8672 1dbf 81c2 12bf 9fa9 4cbf 45ea 1ebf
000001b0: 1904 30bf 9193 32bf 617f 0fbf 7425 27bf
000001c0: 252e 1ebf fb43 0fbf b482 3cbf 4a34 1ebf
000001d0: 2125 24bf 09cb 1cbf def7 18bf 401e 1fbf
000001e0: 760e 1ebf 9887 43bf 5daf 27bf c996 26bf
000001f0: 1ea8 38bf 4599 09bf 99db 0ebf b820 0abf

arith.constant9 f4 [128]
1.0216403 1.1719077 1.3407651 1.1898068 1.4105331 1.4510034 1.0625323 1.2964034
1.4816419 1.5077208 1.2797143 1.3738148 1.283638 1.3983212 1.2078212 1.1560547
1.109927 1.3257953 1.185375 1.350998 1.3604896 1.0620227 1.3933046 1.1095612
1.316923 1.0828604 1.366788 1.44941 1.456716 1.337634 1.3551443 1.2411425
1.0459385 1.3977811 1.285426 1.0742081 1.3269411 1.1682538 1.322198 1.1395108
1.035411 1.3664298 1.1155709 1.4005411 1.278584 1.3227836 1.0936792 0.9096107
1.5439869 0.9052638 1.2119021 1.1369402 0.81801134 1.2415096 1.1451285 0.76978475
0.9092655 1.2537133 1.2939278 1.1862568 1.0827624 1.0412415 1.1274995 0.9514663
0.9733147 1.2379882 1.3361115 1.2515433 1.1790833 1.3712016 1.259956 1.1068633
1.1379468 1.1187068 1.0322851 1.2983749 1.4180927 1.229603 1.0341568 1.0980755
1.175727 1.4120418 1.2579541 1.2902151 1.1162438 0.931351 1.1974615 1.1305984
1.273024 1.3541683 1.1712304 1.1467215 1.1313074 1.3697805 1.4676585 1.1056567
1.360233 1.1784801 1.2376822 1.2588091 1.2737931 1.262582 1.0769477 1.1476378
1.13218 1.2637815 1.1529436 1.2660013 1.2082781 1.1997671 1.207106 1.3788103
1.2080328 0.82251614 1.4744183 1.3927194 1.2596443 1.1859506 1.2245362 1.0959517
1.1852688 1.4515976 1.3945062 1.4252156 1.5582713 1.1264299 1.2040286 1.0903865
00000000: 1cc5 823f 1201 963f 319e ab3f 974b 983f
00000010: 598c b43f 7bba b93f 0f01 883f 8cf0 a53f
00000020: 71a6 bd3f fffc c03f aecd a33f 2ad9 af3f
00000030: 404e a43f 30fc b23f e399 9a3f 9af9 933f
00000040: 1712 8e3f a9b3 a93f 5eba 973f 81ed ac3f
00000050: 8624 ae3f 5cf0 873f ce57 b23f 1a06 8e3f
00000060: ef90 a83f 2b9b 8a3f e9f2 ae3f 4486 b93f
00000070: ab75 ba3f 9737 ab3f 5e75 ad3f c2dd 9e3f
00000080: 50e1 853f 7eea b23f d788 a43f a77f 893f
00000090: 35d9 a93f 5789 953f c93d a93f 7ddb 913f
000000a0: 5988 843f 2ce7 ae3f 07cb 8e3f ee44 b33f
000000b0: a4a8 a33f f950 a93f aefd 8b3f 3fdc 683f
000000c0: 5da1 c53f 5ebf 673f 9c1f 9b3f 4287 913f
000000d0: 3169 513f c9e9 9e3f 9293 923f 9d10 453f
000000e0: a0c5 683f ad79 a03f 6d9f a53f 43d7 973f
000000f0: f597 8a3f 6747 853f e751 903f 4c93 733f
00000100: 272b 793f 6676 9e3f b405 ab3f 9232 a03f
00000110: 34ec 963f 8983 af3f 3d46 a13f b2ad 8d3f
00000120: 3ea8 913f c931 8f3f eb21 843f 2631 a63f
00000130: 1084 b53f a263 9d3f 405f 843f bd8d 8c3f
00000140: 397e 963f c9bd b43f a404 a13f c525 a53f
00000150: 14e1 8e3f 056d 6e3f 6b46 993f 73b7 903f
00000160: 73f2 a23f 6355 ad3f e1ea 953f c5c7 923f
00000170: aece 903f f854 af3f 3cdc bb3f 2986 8d3f
00000180: 1d1c ae3f 70d8 963f 5f6c 9e3f a820 a13f
00000190: a70b a33f 499c a13f 6cd9 893f cce5 923f
000001a0: 46eb 903f 98c3 a13f a893 933f 550c a23f
000001b0: dba8 9a3f f891 993f 7382 9a3f db7c b03f
000001c0: d2a0 9a3f 6b90 523f bdb9 bc3f a144 b23f
000001d0: 063c a13f 3bcd 973f 9abd 9c3f 2548 8c3f
000001e0: e3b6 973f f3cd b93f 2e7f b23f 776d b63f
000001f0: 6f75 c73f db2e 903f 9c1d 9a3f c991 8b3f

arith.constant10 f4 [128]
-0.66753376 -0.3859229 -0.2481162 -0.5961537 -0.24419129 -0.54177755 -0.29485148 -0.32877734
-0.60646856 -0.4038352 -0.38347608 -0.7985775 -0.28415185 -0.4000083 -0.7539136 -0.39450642
-0.39200887 -0.23470572 -0.88460743 -0.64300656 -0.33400732 -0.2955496 -0.6312187 -0.57432854
-0.79260564 -0.32834977 -0.740517 -0.3636341 -0.25009024 -0.96965957 -0.26023898 -0.8277058
-0.5854685 -0.28905424 -0.24726567 -0.6217806 -0.3809787 -0.33190733 -0.63760597 -0.38984525
-0.36887205 -0.26364127 -0.42625827 -0.4257759 -0.3709669 -0.6536431 -0.71897256 -0.39819178
-0.22602625 -0.2877775 -0.62122434 -0.53734463 -0.31633028 -0.34088284 -0.6632817 -0.44006184
-0.49131548 -0.20555131 -0.32775894 -0.4300168 -0.36423868 -0.6650319 -0.58715075 -0.39002475
-0.44845295 -0.549189 -0.65681326 -0.3210604 -0.18654326 -0.66646016 -0.60894525 -0.4458664
-0.2950022 -0.3796438 -0.6377077 -0.54020363 -0.3494059 -0.34120178 -0.49467784 -0.57285637
-0.19444698 -0.24000734 -0.39373824 -0.4751001 -0.37659198 -0.30063057 -0.5669734 -0.286076
-0.39598775 -0.66620225 -0.20808658 -0.7129185 -0.694604 -0.28322616 -0.21152285 -0.660871
-0.36873856 -0.40058303 -0.51462454 -0.40963113 -0.3841593 -0.23171864 -0.45693326 -0.76034486
-0.91588503 -0.30859393 -0.37839675 -0.45209187 -0.71333313 -0.73782986 -0.29898012 -0.60882837
-0.32360896 -0.32413858 -0.4259244 -0.5194384 -0.61581683 -0.7352741 -0.7143308 -0.57095015
-0.3978241 -0.814474 -0.5730161 -0.2049172 -0.32172558 -0.38444772 -0.39944366 -0.6138021
00000000: 7ee3 2abf b097 c5be 2c12 7ebe 879d 18bf
00000010: 480d 7abe efb1 0abf c6f6 96be 8155 a8be
00000020: 8641 1bbf 7dc3 cebe fa56 c4be 936f 4cbf
00000030: 5a7c 91be e3cd ccbe 7b00 41bf bffc c9be
00000040: 63b5 c8be b256 70be a275 62bf 149c 24bf
00000050: 0203 abbe 4752 97be 8c97 21bf 3207 13bf
00000060: 34e8 4abf 761d a8be 8692 3dbf 402e babe
00000070: d40b 80be 9c3b 78bf 0b3e 85be 87e4 53bf
00000080: 43e1 15bf ebfe 93be 3633 7dbe 032d 1fbf
00000090: a40f c3be c2ef a9be 253a 23bf cc99 c7be
000000a0: ccdc bcbe fdfb 86be 863e dabe 4cff d9be
000000b0: 60ef bdbe 2755 27bf 960e 38bf cbdf cbbe
000000c0: 6d73 67be 9357 93be 8f08 1fbf 6b8f 09bf
000000d0: 0bf6 a1be 3288 aebe d4cc 29bf c94f e1be
000000e0: b48d fbbe 0b7c 52be 05d0 a7be 292b dcbe
000000f0: 7e7d babe 883f 2abf 834f 16bf 53b1 c7be
00000100: a09b e5be a697 0cbf ea24 28bf 0762 a4be
00000110: 3205 3fbe 229d 2abf d6e3 1bbf 9a48 e4be
00000120: 870a 97be ac60 c2be d040 23bf c94a 0abf
00000130: 55e5 b2be 00b2 aebe 6a46 fdbe b7a6 12bf
00000140: 1c1d 47be 7cc4 75be 0f98 c9be 5240 f3be
00000150: aad0 c0be 40ec 99be 2b25 11bf 8e78 92be
00000160: e8be cabe 3b8c 2abf a614 55be d481 36bf
00000170: 91d1 31bf 0503 91be 7299 58be d82e 29bf
00000180: 4dcb bcbe 3819 cdbe 6fbe 03bf 2cbb d1be
00000190: 87b0 c4be a747 6dbe 28f3 e9be f6a5 42bf
000001a0: 7177 6abf 0600 9ebe 38bd c1be 9678 e7be
000001b0: 009d 36bf 6be2 3cbf ec13 99be 2ddc 1bbf
000001c0: 13b0 a5be 7ef5 a5be c312 dabe eaf9 04bf
000001d0: 2ca6 1dbf ec3a 3cbf 62de 36bf ca29 12bf
000001e0: 9aaf cbbe 5e81 50bf 2fb1 12bf d1d5 51be
000001f0: 37b9 a4be 55d6 c4be e183 ccbe 2222 1dbf

arith.constant11 f4 [128]
1.3931631 1.4563614 2.5703392 1.2777876 3.5041287 1.4028833 2.8829837 2.7120292
1.3621413 1.4656652 2.310828 1.0811781 3.2946928 1.8064646 1.0032506 1.2418736
1.5480256 3.9126554 1.0109653 1.1656489 2.7958884 1.9380571 1.241781 1.3829465
1.1746124 2.2360923 1.0419843 2.0077536 2.3226326 0.8909071 2.8611639 0.90001893
1.0309296 2.6788828 2.7514217 0.9737345 1.3556176 2.7067404 1.3514775 1.6638488
2.347366 3.0805461 2.3047388 2.3366678 2.1089706 1.0148376 1.2607725 1.6812278
2.577477 3.0953398 1.1078173 1.8791414 2.1619349 2.2987971 1.2472619 2.085759
1.4357544 2.6911037 2.146109 1.7000706 2.162192 1.4379859 1.1051948 1.7345985
2.209667 1.3841467 0.98419976 2.4618144 3.3873668 1.5455688 1.3194602 1.8150408
2.6660957 2.2998724 1.0912769 1.1511403 1.9321201 2.4833562 1.3512238 1.3847882
4.1893134 3.294559 1.6512539 1.8885976 1.9691701 2.8557124 1.2556791 2.7900844
1.9136604 1.1464328 2.8050096 1.021854 0.99854517 2.2654045 4.0996976 1.1809685
1.6821727 1.9221638 1.1125424 1.618853 2.74174 3.1809862 2.2019858 1.3387243
0.7560696 2.5989277 2.1754742 1.5887873 1.3884407 1.3555101 2.8947306 1.2482094
2.6455097 2.5186212 1.359437 1.5724857 0.9808865 1.017333 0.8632333 1.4331274
1.9132885 0.95459265 1.6195788 3.7636 2.3780696 1.9426935 2.0750048 1.3599906
00000000: 2b53 b23f 0d6a ba3f 7080 2440 8b8e a33f
00000010: a543 6040 ae91 b33f ce82 3840 e391 2d40
00000020: a55a ae3f eb9a bb3f 9be4 1340 0b64 8a3f
00000030: 3fdc 5240 3b3a e73f 846a 803f b7f5 9e3f
00000040: b425 c63f f268 7a40 5067 813f fc33 953f
00000050: d6ef 3240 4112 f83f aef2 9e3f 6404 b13f
00000060: b359 963f 231c 0f40 be5f 853f 097f 0040
00000070: 03a6 1440 7d12 643f 4f1d 3740 a467 663f
00000080: 80f5 833f d172 2b40 4b17 3040 aa46 793f
00000090: e184 ad3f 3c3b 2d40 37fd ac3f fff8 d43f
000000a0: 3f3b 1640 ab27 4540 d780 1340 f78b 1540
000000b0: 60f9 0640 33e6 813f fe60 a13f 7932 d73f
000000c0: 62f5 2440 0c1a 4640 f5cc 8d3f b587 f03f
000000d0: 245d 0a40 7e1f 1340 47a6 9f3f 137d 0540
000000e0: cdc6 b73f 0b3b 2c40 da59 0940 ea9b d93f
000000f0: 5b61 0a40 ec0f b83f 0677 8d3f 5307 de3f
00000100: 2f6b 0d40 b82b b13f 84f4 7b3f 5e8e 1d40
00000110: 9eca 5840 33d5 c53f 12e4 a83f 4253 e83f
00000120: 50a1 2a40 1c31 1340 f6ae 8b3f 9158 933f
00000130: b64f f73f 4fef 1e40 e7f4 ac3f bd40 b13f
00000140: db0e 8640 0eda 5240 4a5c d33f 91bd f13f
00000150: c40d fc3f fec3 3640 18ba a03f be90 3240
00000160: d3f2 f43f 4fbe 923f 4785 3340 1dcc 823f
00000170: a8a0 7f3f 63fc 1040 b930 8340 fa29 973f
00000180: 6f51 d73f 7709 f63f ca67 8e3f 9336 cf3f
00000190: ab78 2f40 4795 4b40 56ed 0c40 515b ab3f
000001a0: c78d 413f d554 2640 f83a 0b40 625d cb3f
000001b0: 6db8 b13f 5b81 ad3f 4443 3940 53c5 9f3f
000001c0: 0850 2940 1731 2140 0802 ae3f 3647 c93f
000001d0: 611b 7b3f f837 823f dcfc 5c3f b870 b73f
000001e0: a3e6 f43f 2f60 743f 5c4e cf3f d3de 7040
000001f0: 4b32 1840 2eaa f83f e1cc 0440 2c14 ae3f

arith.constant12 f4 [64]
-0.48611796 -0.694767 -0.6259891 -0.59702456 -0.52307135 -0.83471954 -0.66179883 -0.68333143
-0.6763492 -0.6524484 -0.71110797 -0.87126034 -0.633132 -0.7234178 -0.7472651 -0.60396177
-0.67275107 -0.63653505 -0.7043934 -0.61211985 -0.6264841 -0.6751934 -0.74856114 -0.648282
-0.714908 -0.71190995 -0.7790359 -0.68048614 -0.62577194 -0.6000887 -0.7080467 -0.5549085
-0.5964213 -0.545503 -0.69897646 -0.5761787 -0.6358063 -0.56726366 -0.70861167 -0.6681609
-0.7021039 -0.6570257 -0.64158994 -0.67359275 -0.5961545 -0.569606 -0.5173291 -0.80084556
-0.6789237 -0.6263621 -0.79216385 -0.5911125 -0.54109097 -0.78311986 -0.6825438 -0.69390285
-0.6778944 -0.7540391 -0.72826904 -0.5848981 -0.70203835 -0.6813137 -0.5775283 -0.5135553
00000000: 74e4 f8be 40dc 31bf d240 20bf 9ad6 18bf
00000010: 01e8 05bf 2eb0 55bf a66b 29bf cfee 2ebf
00000020: 3925 2dbf dc06 27bf 2c0b 36bf eb0a 5fbf
00000030: f014 22bf e931 39bf c44c 3fbf 3d9d 1abf
00000040: 6a39 2cbf f6f3 22bf 2053 34bf e3b3 1cbf
00000050: 4361 20bf 7ad9 2cbf b4a1 3fbf cff5 25bf
00000060: 3604 37bf bb3f 36bf e66e 47bf 5734 2ebf
00000070: 9732 20bf 6a9f 19bf 8c42 35bf 7c0e 0ebf
00000080: 11af 18bf 16a6 0bbf 1ff0 32bf 7380 13bf
00000090: 34c4 22bf 3138 11bf 9367 35bf 980c 2bbf
000000a0: 15bd 33bf d632 28bf 3d3f 24bf 9370 2cbf
000000b0: 959d 18bf b3d1 11bf ae6f 04bf 3704 4dbf
000000c0: f2cd 2dbf 4459 20bf 40cb 4abf 2653 17bf
000000d0: f084 0abf 8b7a 48bf 31bb 2ebf 9ea3 31bf
000000e0: 7d8a 2dbf b508 41bf d76f 3abf e2bb 15bf
000000f0: c9b8 33bf 936a 2ebf e5d8 13bf 5c78 03bf

arith.constant13 f4 [64]
1.1534046 1.1801908 1.124939 1.2872089 1.7259709 1.7944868 1.6790384 2.1102986
1.6901271 1.8237972 1.5073621 1.5908067 1.4463671 1.3402723 1.6964378 1.3949996
1.1167458 1.5982246 1.222599 1.3606557 1.1485311 1.766504 1.7884588 0.8437623
2.2846298 1.5881733 1.8855456 1.8489912 1.2386109 1.4744558 1.6144308 1.5724667
1.3281589 1.5624969 1.8656163 1.4164069 1.7994847 1.6016111 1.7905179 1.9845728
2.1361516 1.6969813 1.2113616 1.775101 1.7984531 1.4320307 1.0438404 1.3876235
1.86421 1.5643677 1.4068043 1.780428 1.0724206 0.8438264 1.4349146 1.2852739
1.9336685 1.4949358 1.5895543 1.506064 1.5579813 1.8374541 1.643948 1.3679574
00000000: c3a2 933f 7e10 973f 00fe 8f3f 43c3 a43f
00000010: 9dec dc3f beb1 e53f bbea d63f 220f 0740
00000020: 1656 d83f 3072 e93f 3ef1 c03f 8e9f cb3f
00000030: 8f22 b93f 0b8e ab3f e024 d93f 598f b23f
00000040: 87f1 8e3f a092 cc3f 207e 9c3f f729 ae3f
00000050: 1103 933f ce1c e23f 38ec e43f ce00 583f
00000060: 6037 1240 4349 cb3f 8f59 f13f beab ec3f
00000070: cd8a 9e3f f8ba bc3f aba5 ce3f 9746 c93f
00000080: 1c01 aa3f e6ff c73f 84cc ee3f d24c b53f
00000090: 8455 e63f 9801 cd3f b12f e53f 7b06 fe3f
000000a0: b5b6 0840 af36 d93f e60d 9b3f 8236 e33f
000000b0: b633 e63f c84c b73f 909c 853f a69d b13f
000000c0: 6f9e ee3f 333d c83f 2a12 b43f 11e5 e33f
000000d0: 1445 893f 0205 583f 48ab b73f db83 a43f
000000e0: 7382 f73f 0e5a bf3f 8476 cb3f b5c6 c03f
000000f0: ee6b c73f b231 eb3f e36c d23f 3a19 af3f

arith.constant15 f4 [512]
-0.015295055 0.0011943926 0.0034558326 0.0023785024 -0.006247048 -0.002272651 -0.015192804 -0.008355648
-0.0021689062 0.011864722 -0.004533435 0.0049620527 -0.017118499 0.016255772 -0.0012652419 -0.010552532
0.0012172974 -0.0065001044 -0.004266923 -0.004736139 -0.007497204 -0.011923479 -0.007002074 -0.01982256
-0.008898344 -0.008775871 0.009800293 -0.0035427515 -0.014598231 -0.009106128 -0.008852099 -0.00021670214
0.003362839 0.0008781592 0.00272901 -0.0050912653 0.00041517915 -0.002638278 -0.0033771966 0.0031077976
0.000107677115 -0.0025283124 0.015664063 -0.0083491495 -0.0012214712 -0.0064398358 0.0047706985 -0.0073378403
-0.004781167 0.0004213719 0.00032164383 0.00053354766 0.010703204 -0.010002461 -0.0067144027 -0.003843249
0.010962291 -0.004428795 -0.006897804 -0.0062122424 -0.0081637325 -0.0014699262 0.013523211 -0.006889533
-0.0034569593 -0.003499628 -0.0040422278 -0.005683896 -0.010925386 -0.0012455261 -0.0066396883 -0.008225858
-0.0040092757 -0.01028115 -0.0013742362 -3.4901226e-05 -0.0077841855 -0.00076493836 -0.005514878 -0.0035249454
-0.0034969114 -0.011730285 -0.003887502 -0.0026859953 -0.0012807155 -0.009108944 -0.012379359 -0.0012479136
-0.00840115 -0.00424755 0.009830099 0.024514169 -0.0077453647 -0.0027747462 -0.0037756374 -0.0019780418
0.021979589 -0.00047771385 -0.007553591 0.0039516757 0.007445532 -3.2494812e-05 -0.0034599542 -0.009016497
-0.0011816308 0.0011176383 0.0007180133 0.0067125163 0.0025503393 -0.0144744525 0.0026341416 -0.010968105
-0.0053407513 -0.0048021963 -0.009247153 -0.0040468634 -0.015041567 -0.005811209 -0.0074738995 3.2407126e-05
0.01354291 -0.0021734028 -0.009090881 -0.00650328 0.0061420235 -0.003745218 -0.008231045 0.00036518043
-0.008155254 -0.005751041 -0.0024030863 -0.0036717851 0.002710574 7.8328114e-05 -0.0065927203 0.02061745
-0.0066835517 0.0064627333 0.0084345145 0.0055789356 -0.0050133867 -0.0075875516 -0.001163521 0.035783377
0.0073014232 0.009154132 -0.005775683 -0.0082966415 -0.00011093479 0.007951564 -0.0073413188 -0.006439063
0.00080206175 -0.0003143875 -0.008839055 0.0036413304 -0.008843279 -0.0052175066 0.0012536906 0.0081698075
-0.0034689219 0.012997884 -0.0040293606 -0.0081582265 -0.0050884676 0.0062840655 -0.008696352 0.0109521225
0.003829683 -0.01982058 -0.0039379606 -0.010577693 -0.008941229 -0.0057446137 -0.0049871188 0.0006411192
-0.0020769378 -0.008514216 0.028897015 -0.00314275 0.0010294904 -0.00576607 -0.009923806 0.00012837622
-0.0033976464 -0.010395409 -0.00054812204 -0.001751387 -0.011071464 -0.0063316375 0.0050470433 -0.0040873294
0.0144867785 0.0041043484 -0.006272156 -0.009555536 0.0022975795 -0.013006272 0.0011069209 -0.012843119
0.014934297 -0.027135305 -0.002964205 -0.008304355 -0.0071761636 -0.009259967 0.026785092 -0.002531372
-0.011759801 0.026326679 -0.0020470174 -0.0042779343 -0.0030146367 0.011628502 0.024123807 -0.009118237
-0.0023773198 -0.0024337848 0.0017197989 -0.009916065 -0.009575651 0.0061193593 -0.005033304 0.0030718283
-0.00392855 -0.003944127 -0.0025352489 -0.009045366 -0.00828786 -0.005037866 -0.019829554 -0.014510061
-0.009972232 -0.007218365 -0.0048518204 0.0020076814 0.015271507 -0.004610885 -0.022111759 -0.004645987
-0.014295061 -0.0041452968 -0.0113822995 -0.008566509 -0.0038655112 0.0031694705 -0.01269712 -0.0020563605
-0.0015606032 0.0007794141 -0.0087589035 -0.0031505555 -0.00037083522 -0.0061884876 -0.016174583 -0.003977262
00000000: 1c98 7abc 2a8d 9c3a 407b 623b a6e0 1b3b
00000010: 09b4 ccbb c2f0 14bb 3deb 78bc 21e6 08bc
00000020: 3524 0ebb 4064 423c 368d 94bb b798 a23b
00000030: 183c 8cbc d32a 853c 79d6 a5ba 87e4 2cbc
00000040: b98d 9f3a d4fe d4bb 8bd1 8bbb 9d31 9bbb
00000050: 1bab f5bb b25a 43bc a771 e5bb ec62 a2bc
00000060: 5cca 11bc acc8 0fbc 6891 203c 822d 68bb
00000070: 6b2d 6fbc de31 15bc 6508 11bc 8a3a 63b9
00000080: 1463 5c3b 4434 663a 31d9 323b a1d4 a6bb
00000090: 67ac d939 f6e6 2cbb f553 5dbb 31ac 4b3b
000000a0: b6d0 e138 0bb2 25bb ec51 803c dfca 08bc
000000b0: c619 a0ba 4205 d3bb 8553 9c3b 4472 f0bb
000000c0: 56ab 9cbb 94eb dc39 4ea2 a839 c7dd 0b3a
000000d0: 7e5c 2f3c 5de1 23bc 7e04 dcbb 05df 7bbb
000000e0: 2e9b 333c 6d1f 91bb f906 e2bb 1190 cbbb
000000f0: 2dc1 05bc 8aaa c0ba 7590 5d3c 97c1 e1bb
00000100: 278e 62bb 045a 65bb aa74 84bb fa3f babb
00000110: 6400 33bc ec40 a3ba be91 d9bb c0c5 06bc
00000120: 3e60 83bb 4572 28bc b71f b4ba e862 12b8
00000130: 7b12 ffbb 2586 48ba 26b6 b4bb c502 67bb
00000140: 702c 65bb 6230 40bc 76c5 7ebb 8607 30bb
00000150: aedd a7ba ae3d 15bc ccd2 4abc 0891 a3ba
00000160: faa4 09bc 082f 8bbb 6c0e 213c f0d1 c83c
00000170: d4cc fdbb 84d8 35bb af70 77bb 09a2 01bb
00000180: 8a0e b43c ab75 fab9 1d84 f7bb 0f7d 813b
00000190: a6f9 f33b 0a4b 08b8 66c0 62bb eeb9 13bc
000001a0: f3e0 9aba b87d 923a 0f39 3c3a abf4 db3b
000001b0: 9823 273b 4126 6dbc 90a1 2c3b 91b3 33bc
000001c0: 7801 afbb be5b 9dbb 5f81 17bc 8d9b 84bb
000001d0: e870 76bc f46b bebb 9de7 f4bb e3ec 0738
000001e0: 15e3 5d3c a66f 0ebb ebf1 14bc 7719 d5bb
000001f0: 0743 c93b 5572 75bb 81db 06bc b075 bf39
00000200: 9d9d 05bc 3b73 bcbb 197d 1dbb 55a2 70bb
00000210: e3a3 313b 1644 a438 bf07 d8bb ede5 a83c
00000220: b201 dbbb 56c5 d33b eb30 0a3c 81cf b63b
00000230: 5647 a4bb ffa0 f8bb 4981 98ba 9791 123d
00000240: c740 ef3b 36fb 153c f141 bdbb a3ee 07bc
00000250: a9a5 e8b8 4747 023c 728f f0bb c7fe d2bb
00000260: 7441 523a 60d4 a4b9 afd1 10bc 63a3 6e3b
00000270: 67e3 10bc 9ef7 aabb e052 a43a a8da 053c
00000280: da56 63bb 14f5 543c ba08 84bb 15aa 05bc
00000290: 29bd a6bb 90ea cd3b 257b 0ebc 8870 333c
000002a0: 6bfb 7a3b c55e a2bc 020a 81bb 0f4e 2dbc
000002b0: 3c7e 12bc 503d bcbb fc6a a3bb c810 283a
000002c0: 3c1d 08bb 367f 0bbc 6fb9 ec3c 98f6 4dbb
000002d0: f7ef 863a 4df1 bcbb 7697 22bc bb9c 0639
000002e0: 0cab 5ebb 8151 2abc d9af 0fba cc8e e5ba
000002f0: 1665 35bc a079 cfbb ab61 a53b 01ef 85bb
00000300: f459 6d3c c57d 863b a886 cdbb d38e 1cbc
00000310: fd92 163b 4218 55bc 1a16 913a f26b 52bc
00000320: fbae 743c dc4a debc 1c43 42bb fd0e 08bc
00000330: 0626 ebbb 1eb7 17bc 696c db3c 60e5 25bb
00000340: 2eac 40bc 0cab d73c 4127 06bb ea2d 8cbb
00000350: 3691 45bb 7985 3e3c 4a9f c53c a864 15bc
00000360: cfcc 1bbb 2280 1fbb e06a e13a fe76 22bc
00000370: 31e3 1cbc e884 c83b 6aee a4bb ba50 493b
00000380: 11bb 80bb bc3d 81bb 6b26 26bb 0433 14bc
00000390: cec9 07bc af14 a5bb 9771 a2bc 9bbb 6dbc
000003a0: 9362 23bc 0988 ecbb 05fc 9ebb 4e93 033b
000003b0: 5835 7a3c e816 97bb b823 b5bc 5d3d 98bb
000003c0: d535 6abc 45d5 87bb d37c 3abc 8b5a 0cbc
000003d0: 8454 7dbb e4b6 4f3b 9507 50bc 01c4 06bb
000003e0: 278d ccba 9851 4c3a 8181 0fbc 8d79 4ebb
000003f0: a96c c2b9 ccc8 cabb 8f80 84bc b153 82bb

arith.constant16 f4 [6]
-1.6065569 -0.036468178 1.1792467 -2.7911563 0.24321464 -0.65206826
00000000: a8a3 cdbf a85f 15bd 8ef1 963f 4ea2 32c0
00000010: 420d 793e f2ed 26bf

arith.constant17 f4 [128]
-0.020006657 0.0037181934 -0.00774844 -0.021568695 -0.0067698252 0.0030331227 -0.0077926745 0.0111077335
0.008587689 0.0047595864 -0.001290379 0.0030089011 -0.0143765155 0.009231742 0.024787221 0.015631443
-0.0017321013 -0.010374394 0.0060487958 0.017586498 -0.00018144693 -0.004384545 0.0006957034 -0.0025127223
-0.018544735 -0.0064188577 -0.0038553386 0.005042233 0.015171891 0.013989115 -0.005606692 -0.011060542
-0.00084700016 -0.013756933 -0.0020910036 -0.021066187 0.0060734614 -0.0017729275 0.002827441 -0.014906311
-0.010812641 0.013009588 0.019926256 0.011466956 0.0059104026 -0.003212531 -0.018498532 -0.0009522537
0.021535106 -0.0072351326 0.005630239 -0.0015386724 -0.013384812 0.004443615 -0.0065247733 -0.015009569
-0.012260372 0.008308442 0.005811521 -0.007998396 0.0004631633 0.008681344 0.0068548247 -0.012451745
-0.025542807 -0.009656524 -0.0009971794 -0.011199217 -0.0005094225 0.012152846 -0.021642094 0.004689721
-0.041914035 0.00046559982 -0.02755278 -0.004805467 0.0137368655 -0.014820051 0.004600222 -0.008137265
-0.0074730935 -0.006137674 -0.00014110237 -0.01199964 0.009250334 -0.020723939 -0.0020288327 -0.008682646
0.017193643 0.0057693417 -0.018705502 -0.027375298 0.0011169272 -0.008016087 0.0014026081 -0.0035925934
-0.008017598 0.0065492922 0.007661835 -0.0017954536 -0.016678758 0.0018901199 -0.009296992 0.016027113
-0.019491393 -0.011451563 0.007784784 -0.0010066645 0.007499052 0.002361346 -0.00920196 -0.0039600316
-0.009574864 -0.018144645 0.0076862676 -0.0053990385 -0.013294965 0.0061429986 -0.02074327 -0.009998692
-0.011638414 0.010769656 0.0044402005 -4.4339555e-05 0.008540036 0.0049087745 -0.007837757 -0.0058768196
00000000: 00e5 a3bc efac 733b a0e6 fdbb d5b0 b0bc
00000010: 69d5 ddbb 5bc7 463b b159 ffbb 36fd 353c
00000020: 61b3 0c3c 4ef6 9b3b ef21 a9ba fc30 453b
00000030: 7a8b 6bbc bb40 173c 920e cb3c 830d 803c
00000040: ad07 e3ba 5df9 29bc fa34 c63b 8f11 903c
00000050: ca42 3eb9 3bac 8fbb dd5f 363a 7cac 24bb
00000060: 21eb 97bc 4855 d2bb d9a9 7cbb 5139 a53b
00000070: 8693 783c 9a32 653c 57b8 b7bb 4737 35bc
00000080: 3809 5eba c264 61bc 3809 09bb ff92 acbc
00000090: e303 c73b 9361 e8ba 974c 393b 9a39 74bc
000000a0: 8127 31bc 2b26 553c 633c a33c e6df 3b3c
000000b0: 0dac c13b 5489 52bb 3c8a 97bc aaa0 79ba
000000c0: 646a b03c b114 edbb de7d b83b 47ad c9ba
000000d0: f84b 5bbc bf9b 913b c4cd d5bb b2ea 75bc
000000e0: badf 48bc 2220 083c 926e be3b b40b 03bc
000000f0: bad4 f239 323c 0e3c 709e e03b 6702 4cbc
00000100: 263f d1bc 6636 1ebc cab3 82ba ec7c 37bc
00000110: c48a 05ba bb1c 473c c34a b1bc 3bac 993b
00000120: 0dae 2bbd c01b f439 5eb6 e1bc 2e77 9dbb
00000130: 9710 613c cdcf 72bc 76bd 963b 2a52 05bc
00000140: dae0 f4bb 8b1e c9bb e1f4 13b9 239a 44bc
00000150: b78e 173c 40c5 a9bc 2af6 04bb a841 0ebc
00000160: afd9 8c3c bf0c bd3b 483c 99bc 2942 e0bc
00000170: dc65 923a e855 03bc b8d7 b73a b771 6bbb
00000180: 3e5c 03bc 729b d63b 2110 fb3b 6d55 ebba
00000190: e4a1 88bc e6bd f73a 6952 18bc 4b4b 833c
000001a0: 6aac 9fbc 569f 3bbc 8017 ff3b 0ef2 83ba
000001b0: 9cba f53b d0c0 1a3b d1c3 16bc 27c3 81bb
000001c0: e4df 1cbc 14a4 94bc 16dd fb3b 6bea b0bb
000001d0: 20d3 59bc 354b c93b caed a9bc 8ed1 23bc
000001e0: 0caf 3ebc 3673 303c 1a7f 913b 3cf9 39b8
000001f0: 82eb 0b3c c9d9 a03b ef69 00bc 5692 c0bb

arith.constant18 f4 [128]
-0.002590232 0.00048710106 -0.015960764 -0.017991804 -0.022246446 -0.020648899 -0.017425282 -0.014748476
-0.003807119 -0.0319336 -0.0077683525 -0.007922962 -0.006948095 -0.021006633 -0.0017782162 -0.020661943
-0.019089742 -0.04094155 -0.012844995 0.003949877 -0.012877619 -0.02798571 -0.004054276 -0.0022559948
-0.008970241 -0.0010500983 -0.0021430312 -0.014963126 -0.018133445 -0.006220989 -0.026425358 -0.01712692
-0.009553517 -0.004834443 -0.02323575 -0.0010221992 -0.010257392 0.0014636955 -0.009130869 -0.017264105
-0.0085673565 -0.016811877 -0.007994591 -0.004720672 -0.013825504 -0.0029769386 -0.01786457 -0.008842852
-0.010802191 -0.022298917 -0.017657122 -0.00931905 -0.015633872 -0.020382686 -0.007281819 -0.018480156
-0.009101947 -0.018510139 -0.031038985 -0.015986638 -0.019002477 -0.00839122 -0.013488497 -0.010191766
-0.011083606 -0.02357149 -0.016394278 -0.014427319 -0.01708158 -0.010564531 0.008466225 -0.007745084
-0.012837841 -0.00522524 -0.02068754 -0.015993398 -0.0023215935 -0.008092073 -0.0154114 0.00033361252
-0.032646444 -0.03712798 -0.018876543 -0.008392082 -0.01668282 -0.031741276 -0.0071465806 -0.014900936
-0.013906441 -0.02975933 -0.013319079 -0.0069143404 -0.005347994 -0.0240042 -0.014198108 -0.002476836
-0.011189197 -0.018765599 -0.027852694 -0.012952009 -0.002354195 -0.02601539 0.004154903 -0.012155284
-0.010171147 -0.042576756 -0.0101243155 -0.01752599 -0.009153645 -0.007028458 -0.008784814 -0.0066248113
-0.022578549 -0.0020375294 -0.0009746716 -0.008568119 -0.015946608 -0.020368358 -0.010090709 -0.016190412
-0.010624788 -0.0043868795 -0.009810454 -0.019586388 -0.026601512 -0.0057933656 -0.011383373 -0.0076506836
00000000: e2c0 29bb 9961 ff39 26c0 82bc 8c63 93bc
00000010: 2e3e b6bc e127 a9bc 77bf 8ebc 98a3 71bc
00000020: dc80 79bb cecc 02bd aa8d febb 50cf 01bc
00000030: d8ac e3bb 1a16 acbc 0913 e9ba 3c43 a9bc
00000040: 1762 9cbc 54b2 27bd d073 52bc f86d 813b
00000050: a6fc 52bc 4a42 e5bc bbd9 84bb 50d9 13bb
00000060: ebf7 12bc 74a3 89ba 1972 0cbb e627 75bc
00000070: 978c 94bc 70d9 cbbb fe79 d8bc c14d 8cbc
00000080: 5b86 1cbc 3f6a 9ebb e658 bebc 50fb 85ba
00000090: 9f0e 28bc 79d9 bf3a a499 15bc 746d 8dbc
000000a0: 195e 0cbc 10b9 89bc bffb 02bc deaf 9abb
000000b0: 5e84 62bc be18 43bb b858 92bc 9ce1 10bc
000000c0: acfb 30bc 38ac b6bc aba5 90bc eeae 18bc
000000d0: 9b12 80bc 97f9 a6bc 539c eebb b263 97bc
000000e0: 5520 15bc 93a2 97bc 7845 febc 69f6 82bc
000000f0: 15ab 9bbc 547b 09bc dbfe 5cbc 5dfb 26bc
00000100: 0398 35bc ff18 c1bc 4b4d 86bc 9060 6cbc
00000110: abee 8bbc db16 2dbc ecb5 0a3c 79ca fdbb
00000120: cf55 52bc 7d38 abbb ea78 a9bc 9604 83bc
00000130: e025 18bb 9d94 04bc 1980 7cbc b7e8 ae39
00000140: 47b8 05bd 8213 18bd fba2 9abc f17e 09bc
00000150: 69aa 88bc 2403 02bd dd2d eabb 0e23 74bc
00000160: d7d7 63bc d7c9 f3bc 4438 5abc b191 e2bb
00000170: 3a3e afbb 75a4 c4bc 2e9f 68bc 6a52 22bb
00000180: e552 37bc 50ba 99bc 552b e4bc aa34 54bc
00000190: d748 1abb 3a1e d5bc da25 883b f526 47bc
000001a0: e2a4 26bc f764 2ebd 75e0 25bc aa92 8fbc
000001b0: 2bf9 15bc fb4e e6bb 2eee 0fbc f214 d9bb
000001c0: a6f6 b8bc 1288 05bb 1b81 7fba 4c61 0cbc
000001d0: 76a2 82bc 8bdb a6bc 8053 25bc c1a1 84bc
000001e0: 9713 2ebc d0bf 8fbb 07bc 20bc a273 a0bc
000001f0: 6aeb d9bc 46d6 bdbb 5481 3abc 96b2 fabb

arith.constant19 f4 [64]
-0.03712315 -0.018664025 -0.021291351 0.003366335 -0.026705613 0.013884738 -0.0012958201 0.016076878
-0.03197411 -0.00891545 -0.002499617 -0.0016421269 -0.019402727 -0.0031598078 -0.015397633 -0.014666257
-0.0067116995 -0.010562423 -0.022904731 -0.019413654 -0.0064583374 0.0046357843 0.016095528 -0.008479229
0.01779878 -0.008808083 0.013982404 -0.01116909 -0.0055627516 -0.018660601 -0.012259539 -0.013249271
-0.013837678 -0.009412292 0.0024951547 -0.0321854 0.010994258 0.003739273 0.009189852 -0.002290341
0.00067991856 0.0077285697 -0.006443539 0.009071885 -0.0070936796 -0.0007679801 0.0077861263 -0.012197625
-0.020779438 -0.0077123847 -0.013122607 0.011581738 -0.013168027 -0.007516001 -0.005585723 0.003409364
-0.0034631735 -0.003891368 -0.015588822 -0.01581519 0.0020237404 0.01657345 -0.011091697 -0.028890686
00000000: 720e 18bd 4ce5 98bc 336b aebc bb9d 5c3b
00000010: bbc5 dabc d07c 633c 82d8 a9ba a8b3 833c
00000020: 49f7 02bd 1c12 12bc 9dd0 23bb a33c d7ba
00000030: 78f2 9ebc c714 4fbb 5b46 7cbc be4a 70bc
00000040: d1ed dbbb 030e 2dbc b4a2 bbbc 6209 9fbc
00000050: 76a0 d3bb c7e7 973b c5da 833c 77ec 0abc
00000060: bfce 913c c74f 10bc 7416 653c 8ffe 36bc
00000070: be47 b6bb 1ede 98bc 3cdc 48bc 7813 59bc
00000080: 6eb7 62bc 0436 1abc c085 233b d7d4 03bd
00000090: 4321 343c 970e 753b 0891 163c 8c19 16bb
000000a0: 903c 323a f13f fd3b 5324 d3bb 3ea2 143c
000000b0: 1972 e8bb 4652 49ba c322 ff3b 8cd8 47bc
000000c0: a439 aabc 2cb8 fcbb 3400 57bc 54c1 3d3c
000000d0: b5be 57bc c948 f6bb 7108 b7bb a36f 5f3b
000000e0: 69f6 62bb 5206 7fbb 4268 7fbc db8e 81bc
000000f0: bba0 043b 0bc5 873c f3b9 35bc 29ac ecbc

arith.constant20 f4 [64]
-0.03085689 -0.013387071 -0.0076588574 0.009449954 -0.003133001 -0.0041786744 -0.010204434 -0.01409167
-0.007597714 -0.013570838 -0.030314775 0.007474423 -0.0012830425 -0.019575685 -0.016690012 -0.007260785
-0.0040994226 0.004488461 -0.010995255 0.007733476 -0.011581959 -0.013920828 -0.009689 -0.012020516
-0.0070182085 -0.0043006283 -0.0051553613 -0.006656953 -0.0015782913 0.0037258235 0.0043254886 -0.008614012
-0.009780899 -0.020223452 -0.0030312918 -0.001933973 -0.010518274 0.0005492974 -0.006884233 0.009062579
-0.004084638 -0.01362038 -3.1546835e-05 -0.0041123843 -0.005544387 -0.023120418 0.0012960763 -0.008725459
-0.023558198 -0.012542923 -0.010669741 -0.01678774 -0.007233609 -0.00034353175 -0.004397302 -0.0059159137
0.0016496488 0.007116128 -0.0019058243 -0.0060295304 -0.0024086179 -0.0055174865 -0.01318232 -3.7226895e-05
00000000: 97c7 fcbc 7255 5bbc 27f7 fabb fbd3 1a3c
00000010: 0953 4dbb 43ed 88bb 8030 27bc bfe0 66bc
00000020: 3ff6 f8bb 3858 5ebc b156 f8bc 01ec f43b
00000030: c32b a8ba 305d a0bc 7eb9 88bc e1eb edbb
00000040: 7354 86bb f113 933b 7125 34bc 1969 fd3b
00000050: 42c2 3dbc 2f14 64bc 9dbe 1ebc b3f1 44bc
00000060: 00f9 e5bb 49ec 8cbb 4eee a8bb 9222 dabb
00000070: abde ceba f22c 743b d4bc 8d3b c921 0dbc
00000080: 1040 20bc a7ab a5bc a3a8 46bb 5e7d fdba
00000090: d754 2cbc b9fe 0f3a 2295 e1bb 367b 143c
000000a0: 6dd8 85bb 0428 5fbc 2851 04b8 2ec1 86bb
000000b0: b0ad b5bb 0867 bdbc 1be1 a93a 3af5 0ebc
000000c0: 1ffd c0bc d580 4dbc 23d0 2ebc 7186 89bc
000000d0: e907 edbb 0d1c b4b9 3e17 90bb 48da c1bb
000000e0: 0739 d83a 692e e93b dacc f9ba 5e93 c5bb
000000f0: e7d9 1dbb 08cc b4bb a8fa 57bc 1324 1cb8

arith.constant21 f4 [32]
0.00969851 -0.004466548 0.0024845107 0.0029661285 -0.015535926 -0.004486645 -0.002346262 0.005191106
-0.011399449 -0.012167172 -0.008613459 -0.024472965 -0.007195365 -0.010650689 0.0022258272 -0.0021190897
0.028114237 0.00080067205 -0.014438897 0.021412011 -0.013311773 0.00034208476 -0.023478273 -0.006787419
0.0020319591 -0.0028296453 -0.027352879 -0.015439134 -0.0014733986 -0.008500915 0.0053907256 0.0011895073
00000000: 80e6 1e3c 1f5c 92bb 2cd3 223b 6163 423b
00000010: 668a 7ebc b504 93bb bfc3 19bb 271a aa3b
00000020: c1c4 3abc d158 47bc 771f 0dbc 877b c8bc
00000030: 19c7 ebbb 3a80 2ebc 2fdf 113b 6de0 0abb
00000040: d44f e63c 31e4 513a 2091 6cbc 3e68 af3c
00000050: 9f19 5abc d759 b339 8255 c0bc ff68 debb
00000060: 9e2a 053b 9271 39bb 2513 e0bc 6cf4 7cbc
00000070: 0e1f c1ba 6c47 0bbc afa4 b03b 3ee9 9b3a

tfl.pseudo_qconst i1 [6, 512]
15 13 -12 -8 -17 -48 -5 32
-9 3 -60 -21 -2 10 26 -13
10 -97 11 12 0 -90 -24 8
-4 -18 -14 7 85 -86 14 -3
14 -5 -8 36 -14 -18 -13 -13
-16 -26 7 -18 43 -42 -10 16
4 -8 -9 -4 -7 -95 -45 62
-4 2 26 7 83 -2 -5 -7
25 -20 -14 23 6 -11 -53 -20
9 -39 -13 6 -32 15 16 -5
26 -12 14 -16 6 -126 63 27
-43 5 18 -13 -15 71 3 12
0 -49 15 -2 5 24 2 71
24 14 -18 25 23 8 5 9
11 -53 -75 -13 -43 7 -12 -33
2 9 7 22 -14 27 -24 15
-32 94 -38 13 -16 -10 0 -4
37 -13 4 15 27 -14 31 3
-13 -5 13 32 61 -10 30 10
7 59 8 1 55 23 -12 3
-2 11 15 -26 -5 6 -2 -10
8 -24 12 -1 1 4 -9 14
-1 -35 -12 6 -46 10 -4 -36
23 -13 2 3 1 8 16 -28
10 5 -21 22 4 4 -13 -5
-10 10 26 12 8 18 7 -16
9 -2 -6 51 -5 3 -8 10
2 6 21 -47 -119 -19 -50 -6
-4 23 8 14 4 -48 13 -115
-7 -20 -5 -8 9 11 -5 -28
10 2 34 9 11 5 19 3
2 -15 12 -14 8 -9 25 -7
00000000: 0f0d f4f8 efd0 fb20 f703 c4eb fe0a 1af3
00000010: 0a9f 0b0c 00a6 e808 fcee f207 55aa 0efd
00000020: 0efb f824 f2ee f3f3 f0e6 07ee 2bd6 f610
00000030: 04f8 f7fc f9a1 d33e fc02 1a07 53fe fbf9
00000040: 19ec f217 06f5 cbec 09d9 f306 e00f 10fb
00000050: 1af4 0ef0 0682 3f1b d505 12f3 f147 030c
00000060: 00cf 0ffe 0518 0247 180e ee19 1708 0509
00000070: 0bcb b5f3 d507 f4df 0209 0716 f21b e80f
00000080: e05e da0d f0f6 00fc 25f3 040f 1bf2 1f03
00000090: f3fb 0d20 3df6 1e0a 073b 0801 3717 f403
000000a0: fe0b 0fe6 fb06 fef6 08e8 0cff 0104 f70e
000000b0: ffdd f406 d20a fcdc 17f3 0203 0108 10e4
000000c0: 0a05 eb16 0404 f3fb f60a 1a0c 0812 07f0
000000d0: 09fe fa33 fb03 f80a 0206 15d1 89ed cefa
000000e0: fc17 080e 04d0 0d8d f9ec fbf8 090b fbe4
000000f0: 0a02 2209 0b05 1303 02f1 0cf2 08f7 19f9

tfl.pseudo_qconst1 i1 [128, 3, 3, 128]
-38 -15 40 -3 5 32 -37 -22
61 -41 -31 -44 87 16 45 73
-7 -50 -30 -11 33 -70 31 -66
-23 -89 -21 94 -63 40 41 -50
-60 63 -80 51 -87 49 -74 -35
28 101 -1 -41 62 0 9 70
-26 21 56 0 -95 -63 66 86
53 -76 -9 -40 50 -1 11 83
-42 -19 -38 84 -33 -26 -80 50
-63 -6 14 16 42 69 -14 -65
-8 -47 10 85 42 -74 -14 -45
-63 0 47 -21 73 24 42 -60
-25 -36 -46 61 -24 39 78 47
-89 -8 -34 22 -7 2 72 -15
22 -69 57 31 60 -55 -82 -81
-25 -9 13 -44 77 -62 57 40
-27 -6 66 13 -17 -10 39 15
-59 10 -1 -49 -33 -19 -63 -34
-23 50 101 -37 -13 59 44 -24
-30 48 42 91 -75 -26 3 -38
-84 7 -67 -10 -25 -59 12 17
33 72 12 32 40 -48 -5 6
-37 -42 22 8 19 72 -21 -36
-76 51 -48 72 -11 -10 -11 -72
-47 -3 -72 -39 7 58 67 19
40 65 -44 11 -31 -101 -50 80
-61 -30 -88 -25 -84 -42 -32 73
5 -31 -42 -46 1 62 53 56
-11 5 75 -76 -49 12 -28 -60
67 -64 0 32 -34 32 71 89
-52 -8 -80 -22 66 -37 -80 3
-37 12 -37 -60 15 64 -28 64
00000000: daf1 28fd 0520 dbea 3dd7 e1d4 5710 2d49
00000010: f9ce e2f5 21ba 1fbe e9a7 eb5e c128 29ce
00000020: c43f b033 a931 b6dd 1c65 ffd7 3e00 0946
00000030: e615 3800 a1c1 4256 35b4 f7d8 32ff 0b53
00000040: d6ed da54 dfe6 b032 c1fa 0e10 2a45 f2bf
00000050: f8d1 0a55 2ab6 f2d3 c100 2feb 4918 2ac4
00000060: e7dc d23d e827 4e2f a7f8 de16 f902 48f1
00000070: 16bb 391f 3cc9 aeaf e7f7 0dd4 4dc2 3928
00000080: e5fa 420d eff6 270f c50a ffcf dfed c1de
00000090: e932 65db f33b 2ce8 e230 2a5b b5e6 03da
000000a0: ac07 bdf6 e7c5 0c11 2148 0c20 28d0 fb06
000000b0: dbd6 1608 1348 ebdc b433 d048 f5f6 f5b8
000000c0: d1fd b8d9 073a 4313 2841 d40b e19b ce50
000000d0: c3e2 a8e7 acd6 e049 05e1 d6d2 013e 3538
000000e0: f505 4bb4 cf0c e4c4 43c0 0020 de20 4759
000000f0: ccf8 b0ea 42db b003 db0c dbc4 0f40 e440
